…
trained is set to true which will include all the default weight of the model trained on ImageNet dataset and attached the model to the avaliable device i.e. GPU or CPU. The model accepts data in channel first format i.e. (channel,height,width) in this case (3,224,224)</p><p><strong>Line 2</strong>: This snippets shows the summary of the network as shown below:</p><pre>----------------------------------------------------------------         Layer (type)               Output Shape         Param # ================================================================             Conv2d-1              [-1, 32, 112, 112]             864        BatchNorm2d-2         [-1, 32, 112, 112]              64              ReLU6-3               [-1, 32, 112, 112]               0             Conv2d-4              [-1, 32, 112, 112]             288        BatchNorm2d-5         [-1, 32, 112, 112]              64              ReLU6-6               [-1, 32, 112, 112]               0             Conv2d-7              [-1, 16, 112, 112]             512        BatchNorm2d-8         [-1, 16, 112, 112]              32   InvertedResidual-9    [-1, 16, 112, 112]               0            Conv2d-10             [-1, 96, 112, 112]           1,536       BatchNorm2d-11        [-1, 96, 112, 112]             192             ReLU6-12              [-1, 96, 112, 112]               0            Conv2d-13               [-1, 96, 56, 56]             864       BatchNorm2d-14          [-1, 96, 56, 56]             192             ReLU6-15                [-1, 96, 56, 56]               0            Conv2d-16               [-1, 24, 56, 56]           2,304       BatchNorm2d-17          [-1, 24, 56, 56]              48  InvertedResidual-18     [-1, 24, 56, 56]               0            Conv2d-19              [-1, 144, 56, 56]           3,456       BatchNorm2d-20         [-1, 144, 56, 56]             288             ReLU6-21               [-1, 144, 56, 56]               0            Conv2d-22              [-1, 144, 56, 56]           1,296       BatchNorm2d-23         [-1, 144, 56, 56]             288             ReLU6-24               [-1, 144, 56, 56]               0            Conv2d-25               [-1, 24, 56, 56]           3,456       BatchNorm2d-26          [-1, 24, 56, 56]              48  InvertedResidual-27     [-1, 24, 56, 56]               0            Conv2d-28              [-1, 144, 56, 56]           3,456       BatchNorm2d-29         [-1, 144, 56, 56]             288             ReLU6-30               [-1, 144, 56, 56]               0            Conv2d-31              [-1, 144, 28, 28]           1,296       BatchNorm2d-32         [-1, 144, 28, 28]             288             ReLU6-33               [-1, 144, 28, 28]               0            Conv2d-34               [-1, 32, 28, 28]           4,608       BatchNorm2d-35          [-1, 32, 28, 28]              64  InvertedResidual-36     [-1, 32, 28, 28]               0            Conv2d-37              [-1, 192, 28, 28]           6,144       BatchNorm2d-38         [-1, 192, 28, 28]             384             ReLU6-39               [-1, 192, 28, 28]               0            Conv2d-40              [-1, 192, 28, 28]           1,728       BatchNorm2d-41         [-1, 192, 28, 28]             384             ReLU6-42               [-1, 192, 28, 28]               0            Conv2d-43               [-1, 32, 28, 28]           6,144       BatchNorm2d-44          [-1, 32, 28, 28]              64  InvertedResidual-45     [-1, 32, 28, 28]               0            Conv2d-46              [-1, 192, 28, 28]           6,144       BatchNorm2d-47         [-1, 192, 28, 28]             384             ReLU6-48               [-1, 192, 28, 28]               0            Conv2d-49              [-1, 192, 28, 28]           1,728       BatchNorm2d-50         [-1, 192, 28, 28]             384             ReLU6-51               [-1, 192, 28, 28]               0            Conv2d-52               [-1, 32, 28, 28]           6,144       BatchNorm2d-53          [-1, 32, 28, 28]              64  InvertedResidual-54     [-1, 32, 28, 28]               0            Conv2d-55              [-1, 192, 28, 28]           6,144       BatchNorm2d-56         [-1, 192, 28, 28]             384             ReLU6-57               [-1, 192, 28, 28]               0            Conv2d-58              [-1, 192, 14, 14]           1,728       BatchNorm2d-59         [-1, 192, 14, 14]             384             ReLU6-60               [-1, 192, 14, 14]               0            Conv2d-61               [-1, 64, 14, 14]          12,288       BatchNorm2d-62          [-1, 64, 14, 14]             128  InvertedResidual-63     [-1, 64, 14, 14]               0            Conv2d-64              [-1, 384, 14, 14]          24,576       BatchNorm2d-65         [-1, 384, 14, 14]             768             ReLU6-66               [-1, 384, 14, 14]               0            Conv2d-67              [-1, 384, 14, 14]           3,456       BatchNorm2d-68         [-1, 384, 14, 14]             768             ReLU6-69               [-1, 384, 14, 14]               0            Conv2d-70               [-1, 64, 14, 14]          24,576       BatchNorm2d-71          [-1, 64, 14, 14]             128  InvertedResidual-72     [-1, 64, 14, 14]               0            Conv2d-73              [-1, 384, 14, 14]          24,576       BatchNorm2d-74         [-1, 384, 14, 14]             768             ReLU6-75               [-1, 384, 14, 14]               0            Conv2d-76              [-1, 384, 14, 14]           3,456       BatchNorm2d-77         [-1, 384, 14, 14]             768             ReLU6-78               [-1, 384, 14, 14]               0            Conv2d-79               [-1, 64, 14, 14]          24,576       BatchNorm2d-80          [-1, 64, 14, 14]             128  InvertedResidual-81     [-1, 64, 14, 14]               0            Conv2d-82              [-1, 384, 14, 14]          24,576       BatchNorm2d-83         [-1, 384, 14, 14]             768             ReLU6-84               [-1, 384, 14, 14]               0            Conv2d-85              [-1, 384, 14, 14]             768             ReLU6-87               [-1, 384, 14, 14]               0            Conv2d-88               [-1, 64, 14, 14]          24,576       BatchNorm2d-89          [-1, 64, 14, 14]             128  InvertedResidual-90     [-1, 64, 14, 14]               0            Conv2d-91              [-1, 384, 14, 14]          24,576       BatchNorm2d-92         [-1, 384, 14, 14]             768             ReLU6-93               [-1, 384, 14, 14]               0            Conv2d-94              [-1, 384, 14, 14]           3,456       BatchNorm2d-95         [-1, 384, 14, 14]             768             ReLU6-96               [-1, 384, 14, 14]               0            Conv2d-97               [-1, 96, 14, 14]          36,864       BatchNorm2d-98          [-1, 96, 14, 14]             192  InvertedResidual-99     [-1, 96, 14, 14]               0           Conv2d-100             [-1, 576, 14, 14]          55,296      BatchNorm2d-101        [-1, 576, 14, 14]           1,152            ReLU6-102              [-1, 576, 14, 14]               0           Conv2d-103             [-1, 576, 14, 14]           5,184      BatchNorm2d-104        [-1, 576, 14, 14]           1,152            ReLU6-105              [-1, 576, 14, 14]               0           Conv2d-106              [-1, 96, 14, 14]          55,296      BatchNorm2d-107         [-1, 96, 14, 14]             192 InvertedResidual-108    [-1, 96, 14, 14]               0           Conv2d-109             [-1, 576, 14, 14]          55,296      BatchNorm2d-110        [-1, 576, 14, 14]           1,152            ReLU6-111              [-1, 576, 14, 14]               0           Conv2d-112             [-1, 576, 14, 14]           5,184      BatchNorm2d-113        [-1, 576, 14, 14]           1,152            ReLU6-114              [-1, 576, 14, 14]               0           Conv2d-115              [-1, 96, 14, 14]          55,296      BatchNorm2d-116         [-1, 96, 14, 14]             192 InvertedResidual-117    [-1, 96, 14, 14]               0           Conv2d-118             [-1, 576, 14, 14]          55,296      BatchNorm2d-119        [-1, 576, 14, 14]           1,152            ReLU6-120              [-1, 576, 14, 14]               0           Conv2d-121               [-1, 576, 7, 7]           5,184      BatchNorm2d-122          [-1, 576, 7, 7]           1,152            ReLU6-123                [-1, 576, 7, 7]               0           Conv2d-124               [-1, 160, 7, 7]          92,160      BatchNorm2d-125          [-1, 160, 7, 7]             320 InvertedResidual-126     [-1, 160, 7, 7]               0           Conv2d-127               [-1, 960, 7, 7]         153,600      BatchNorm2d-128          [-1, 960, 7, 7]           1,920            ReLU6-129                [-1, 960, 7, 7]               0           Conv2d-130               [-1, 960, 7, 7]           8,640      BatchNorm2d-131          [-1, 960, 7, 7]           1,920            ReLU6-132                [-1, 960, 7, 7]               0           Conv2d-133               [-1, 160, 7, 7]         153,600      BatchNorm2d-134          [-1, 160, 7, 7]             320 InvertedResidual-135     [-1, 160, 7, 7]               0           Conv2d-136               [-1, 960, 7, 7]         153,600      BatchNorm2d-137          [-1, 960, 7, 7]           1,920            ReLU6-138                [-1, 960, 7, 7]               0           Conv2d-139               [-1, 960, 7, 7]           8,640      BatchNorm2d-140          [-1, 960, 7, 7]           1,920            ReLU6-141                [-1, 960, 7, 7]               0           Conv2d-142               [-1, 160, 7, 7]         153,600      BatchNorm2d-143          [-1, 160, 7, 7]             320 InvertedResidual-144     [-1, 160, 7, 7]               0           Conv2d-145               [-1, 960, 7, 7]         153,600      BatchNorm2d-146          [-1, 960, 7, 7]           1,920            ReLU6-147                [-1, 960, 7, 7]               0           Conv2d-148               [-1, 960, 7, 7]           8,640      BatchNorm2d-149          [-1, 960, 7, 7]           1,920            ReLU6-150                [-1, 960, 7, 7]               0           Conv2d-151               [-1, 320, 7, 7]         307,200      BatchNorm2d-152          [-1, 320, 7, 7]             640 InvertedResidual-153     [-1, 320, 7, 7]               0           Conv2d-154              [-1, 1280, 7, 7]         409,600      BatchNorm2d-155         [-1, 1280, 7, 7]           2,560            ReLU6-156               [-1, 1280, 7, 7]               0          Dropout-157                   [-1, 1280]               0           Linear-158                    [-1, 1000]       1,281,000 ================================================================ Total params: 3,504,872 <br>Trainable params: 3,504,872 <br>Non-trainable params: 0 <br>---------------------------------------------------------------- Input size (MB): 0.57 Forward/backward pass size (MB): 152.87 Params size (MB): 13.37 Estimated Total Size (MB): 166.81 -------------------------------------------------------------
…
00 here classes=1000<strong> </strong>and classifier_ layer activation to softmax i.e.<em>classifier_activation=’softmax’.</em></p><p><strong>Line 2</strong>: This snippets shows the summary of the network as shown below:</p><pre>Model: &quot;mobilenetv2_1.00_224&quot; __________________________________________________________________________________________________ Layer (type)                    Output Shape         Param #     Connected to                      ================================================================================================== input_1 (InputLayer)            [(None, 224, 224, 3) 0                                             __________________________________________________________________________________________________ Conv1 (Conv2D)                  (None, 112, 112, 32) 864         input_1[0][0]                     __________________________________________________________________________________________________ bn_Conv1 (BatchNormalization)   (None, 112, 112, 32) 128         Conv1[0][0]                       __________________________________________________________________________________________________ Conv1_relu (ReLU)               (None, 112, 112, 32) 0           bn_Conv1[0][0]                    __________________________________________________________________________________________________ expanded_conv_depthwise (Depthw (None, 112, 112, 32) 288         Conv1_relu[0][0]                  __________________________________________________________________________________________________ expanded_conv_depthwise_BN (Bat (None, 112, 112, 32) 128         expanded_conv_depthwise[0][0]     __________________________________________________________________________________________________ expanded_conv_depthwise_relu (R (None, 112, 112, 32) 0           expanded_conv_depthwise_BN[0][0]  __________________________________________________________________________________________________ expanded_conv_project (Conv2D)  (None, 112, 112, 16) 512         expanded_conv_depthwise_relu[0][0 __________________________________________________________________________________________________ expanded_conv_project_BN (Batch (None, 112, 112, 16) 64          expanded_conv_project[0][0]       __________________________________________________________________________________________________ block_1_expand (Conv2D)         (None, 112, 112, 96) 1536        expanded_conv_project_BN[0][0]    __________________________________________________________________________________________________ block_1_expand_BN (BatchNormali (None, 112, 112, 96) 384         block_1_expand[0][0]              __________________________________________________________________________________________________ block_1_expand_relu (ReLU)      (None, 112, 112, 96) 0           block_1_expand_BN[0][0]           __________________________________________________________________________________________________ block_1_pad (ZeroPadding2D)     (None, 113, 113, 96) 0           block_1_expand_relu[0][0]         __________________________________________________________________________________________________ block_1_depthwise (DepthwiseCon (None, 56, 56, 96)   864         block_1_pad[0][0]                 __________________________________________________________________________________________________ block_1_depthwise_BN (BatchNorm (None, 56, 56, 96)   384         block_1_depthwise[0][0]           __________________________________________________________________________________________________ block_1_depthwise_relu (ReLU)   (None, 56, 56, 96)   0           block_1_depthwise_BN[0][0]        __________________________________________________________________________________________________ block_1_project (Conv2D)        (None, 56, 56, 24)   2304        block_1_depthwise_relu[0][0]      __________________________________________________________________________________________________ block_1_project_BN (BatchNormal (None, 56, 56, 24)   96          block_1_project[0][0]             __________________________________________________________________________________________________ block_2_expand (Conv2D)         (None, 56, 56, 144)  3456        block_1_project_BN[0][0]          __________________________________________________________________________________________________ block_2_expand_BN (BatchNormali (None, 56, 56, 144)  576         block_2_expand[0][0]              __________________________________________________________________________________________________ block_2_expand_relu (ReLU)      (None, 56, 56, 144)  0           block_2_expand_BN[0][0]           __________________________________________________________________________________________________ block_2_depthwise (DepthwiseCon (None, 56, 56, 144)  1296        block_2_expand_relu[0][0]         __________________________________________________________________________________________________ block_2_depthwise_BN (BatchNorm (None, 56, 56, 144)  576         block_2_depthwise[0][0]           __________________________________________________________________________________________________ block_2_depthwise_relu (ReLU)   (None, 56, 56, 144)  0           block_2_depthwise_BN[0][0]        __________________________________________________________________________________________________ block_2_project (Conv2D)        (None, 56, 56, 24)   3456        block_2_depthwise_relu[0][0]      __________________________________________________________________________________________________ block_2_project_BN (BatchNormal (None, 56, 56, 24)   96          block_2_project[0][0]             __________________________________________________________________________________________________ block_2_add (Add)               (None, 56, 56, 24)   0           block_1_project_BN[0][0]                                                                           block_2_project_BN[0][0]          __________________________________________________________________________________________________ block_3_expand (Conv2D)         (None, 56, 56, 144)  3456        block_2_add[0][0]                 __________________________________________________________________________________________________ block_3_expand_BN (BatchNormali (None, 56, 56, 144)  576         block_3_expand[0][0]              __________________________________________________________________________________________________ block_3_expand_relu (ReLU)      (None, 56, 56, 144)  0           block_3_expand_BN[0][0]           __________________________________________________________________________________________________ block_3_pad (ZeroPadding2D)     (None, 57, 57, 144)  0           block_3_expand_relu[0][0]         __________________________________________________________________________________________________ block_3_depthwise (DepthwiseCon (None, 28, 28, 144)  1296        block_3_pad[0][0]                 __________________________________________________________________________________________________ block_3_depthwise_BN (BatchNorm (None, 28, 28, 144)  576         block_3_depthwise[0][0]           __________________________________________________________________________________________________ block_3_depthwise_relu (ReLU)   (None, 28, 28, 144)  0           block_3_depthwise_BN[0][0]        __________________________________________________________________________________________________ block_3_project (Conv2D)        (None, 28, 28, 32)   4608        block_3_depthwise_relu[0][0]      __________________________________________________________________________________________________ block_3_project_BN (BatchNormal (None, 28, 28, 32)   128         block_3_project[0][0]             __________________________________________________________________________________________________ block_4_expand (Conv2D)         (None, 28, 28, 192)  6144        block_3_project_BN[0][0]          __________________________________________________________________________________________________ block_4_expand_BN (BatchNormali (None, 28, 28, 192)  768         block_4_expand[0][0]              __________________________________________________________________________________________________ block_4_expand_relu (ReLU)      (None, 28, 28, 192)  0           block_4_expand_BN[0][0]           __________________________________________________________________________________________________ block_4_depthwise (DepthwiseCon (None, 28, 28, 192)  1728        block_4_expand_relu[0][0]         __________________________________________________________________________________________________ block_4_depthwise_BN (BatchNorm (None, 28, 28, 192)  768         block_4_depthwise[0][0]           __________________________________________________________________________________________________ block_4_depthwise_relu (ReLU)   (None, 28, 28, 192)  0           block_4_depthwise_BN[0][0]        __________________________________________________________________________________________________ block_4_project (Conv2D)        (None, 28, 28, 32)   6144        block_4_depthwise_relu[0][0]      __________________________________________________________________________________________________ block_4_project_BN (BatchNormal (None, 28, 28, 32)   128         block_4_project[0][0]             __________________________________________________________________________________________________ block_4_add (Add)               (None, 28, 28, 32)   0           block_3_project_BN[0][0]                                                                           block_4_project_BN[0][0]          __________________________________________________________________________________________________ block_5_expand (Conv2D)         (None, 28, 28, 192)  6144        block_4_add[0][0]                 __________________________________________________________________________________________________ block_5_expand_BN (BatchNormali (None, 28, 28, 192)  768         block_5_expand[0][0]              __________________________________________________________________________________________________ block_5_expand_relu (ReLU)      (None, 28, 28, 192)  0           block_5_expand_BN[0][0]           __________________________________________________________________________________________________ block_5_depthwise (DepthwiseCon (None, 28, 28, 192)  1728        block_5_expand_relu[0][0]         __________________________________________________________________________________________________ block_5_depthwise_BN (BatchNorm (None, 28, 28, 192)  768         block_5_depthwise[0][0]           __________________________________________________________________________________________________ block_5_depthwise_relu (ReLU)   (None, 28, 28, 192)  0           block_5_depthwise_BN[0][0]        __________________________________________________________________________________________________ block_5_project (Conv2D)        (None, 28, 28, 32)   6144        block_5_depthwise_relu[0][0]      __________________________________________________________________________________________________ block_5_project_BN (BatchNormal (None, 28, 28, 32)   128         block_5_project[0][0]             __________________________________________________________________________________________________ block_5_add (Add)               (None, 28, 28, 32)   0           block_4_add[0][0]                                                                                  block_5_project_BN[0][0]          __________________________________________________________________________________________________ block_6_expand (Conv2D)         (None, 28, 28, 192)  6144        block_5_add[0][0]                 __________________________________________________________________________________________________ block_6_expand_BN (BatchNormali (None, 28, 28, 192)  768         block_6_expand[0][0]              __________________________________________________________________________________________________ block_6_expand_relu (ReLU)      (None, 28, 28, 192)  0           block_6_expand_BN[0][0]           __________________________________________________________________________________________________ block_6_pad (ZeroPadding2D)     (None, 29, 29, 192)  0           block_6_expand_relu[0][0]         __________________________________________________________________________________________________ block_6_depthwise (DepthwiseCon (None, 14, 14, 192)  1728        block_6_pad[0][0]                 __________________________________________________________________________________________________ block_6_depthwise_BN (BatchNorm (None, 14, 14, 192)  768         block_6_depthwise[0][0]           __________________________________________________________________________________________________ block_6_depthwise_relu (ReLU)   (None, 14, 14, 192)  0           block_6_depthwise_BN[0][0]        __________________________________________________________________________________________________ block_6_project (Conv2D)        (None, 14, 14, 64)   12288       block_6_depthwise_relu[0][0]      __________________________________________________________________________________________________ block_6_project_BN (BatchNormal (None, 14, 14, 64)   256         block_6_project[0][0]             __________________________________________________________________________________________________ block_7_expand (Conv2D)         (None, 14, 14, 384)  24576       block_6_project_BN[0][0]          __________________________________________________________________________________________________ block_7_expand_BN (BatchNormali (None, 14, 14, 384)  1536        block_7_expand[0][0]              __________________________________________________________________________________________________ block_7_expand_relu (ReLU)      (None, 14, 14, 384)  0           block_7_expand_BN[0][0]           __________________________________________________________________________________________________ block_7_depthwise (DepthwiseCon (None, 14, 14, 384)  3456        block_7_expand_relu[0][0]         __________________________________________________________________________________________________ block_7_depthwise_BN (BatchNorm (None, 14, 14, 384)  1536        block_7_depthwise[0][0]           __________________________________________________________________________________________________ block_7_depthwise_relu (ReLU)   (None, 14, 14, 384)  0           block_7_depthwise_BN[0][0]        __________________________________________________________________________________________________ block_7_project (Conv2D)        (None, 14, 14, 64)   24576       block_7_depthwise_relu[0][0]      __________________________________________________________________________________________________ block_7_project_BN (BatchNormal (None, 14, 14, 64)   256         block_7_project[0][0]             __________________________________________________________________________________________________ block_7_add (Add)               (None, 14, 14, 64)   0           block_6_project_BN[0][0]                                                                           block_7_project_BN[0][0]          __________________________________________________________________________________________________ block_8_expand (Conv2D)         (None, 14, 14, 384)  24576       block_7_add[0][0]                 __________________________________________________________________________________________________ block_8_expand_BN (BatchNormali (None, 14, 14, 384)  1536        block_8_expand[0][0]              __________________________________________________________________________________________________ block_8_expand_relu (ReLU)      (None, 14, 14, 384)  0           block_8_expand_BN[0][0]           __________________________________________________________________________________________________ block_8_depthwise (DepthwiseCon (None, 14, 14, 384)  3456        block_8_expand_relu[0][0]         __________________________________________________________________________________________________ block_8_depthwise_BN (BatchNorm (None, 14, 14, 384)  1536        block_8_depthwise[0][0]           __________________________________________________________________________________________________ block_8_depthwise_relu (ReLU)   (None, 14, 14, 384)  0           block_8_depthwise_BN[0][0]        __________________________________________________________________________________________________ block_8_project (Conv2D)        (None, 14, 14, 64)   24576       block_8_depthwise_relu[0][0]      __________________________________________________________________________________________________ block_8_project_BN (BatchNormal (None, 14, 14, 64)   256         block_8_project[0][0]             __________________________________________________________________________________________________ block_8_add (Add)               (None, 14, 14, 64)   0           block_7_add[0][0]                                                                                  block_8_project_BN[0][0]          __________________________________________________________________________________________________ block_9_expand (Conv2D)         (None, 14, 14, 384)  24576       block_8_add[0][0]                 __________________________________________________________________________________________________ block_9_expand_BN (BatchNormali (None, 14, 14, 384)  1536        block_9_expand[0][0]              __________________________________________________________________________________________________ block_9_expand_relu (ReLU)      (None, 14, 14, 384)  0           block_9_expand_BN[0][0]           __________________________________________________________________________________________________ block_9_depthwise (DepthwiseCon (None, 14, 14, 384)  3456        block_9_expand_relu[0][0]         __________________________________________________________________________________________________ block_9_depthwise_BN (BatchNorm (None, 14, 14, 384)  1536        block_9_depthwise[0][0]           __________________________________________________________________________________________________ block_9_depthwise_relu (ReLU)   (None, 14, 14, 384)  0           block_9_depthwise_BN[0][0]        __________________________________________________________________________________________________ block_9_project (Conv2D)        (None, 14, 14, 64)   24576       block_9_depthwise_relu[0][0]      __________________________________________________________________________________________________ block_9_project_BN (BatchNormal (None, 14, 14, 64)   256         block_9_project[0][0]             __________________________________________________________________________________________________ block_9_add (Add)               (None, 14, 14, 64)   0           block_8_add[0][0]                                                                                  block_9_project_BN[0][0]          __________________________________________________________________________________________________ block_10_expand (Conv2D)        (None, 14, 14, 384)  24576       block_9_add[0][0]                 __________________________________________________________________________________________________ block_10_expand_BN (BatchNormal (None, 14, 14, 384)  1536        block_10_expand[0][0]             __________________________________________________________________________________________________ block_10_expand_relu (ReLU)     (None, 14, 14, 384)  0           block_10_expand_BN[0][0]          __________________________________________________________________________________________________ block_10_depthwise (DepthwiseCo (None, 14, 14, 384)  3456        block_10_expand_relu[0][0]        __________________________________________________________________________________________________ block_10_depthwise_BN (BatchNor (None, 14, 14, 384)  1536        block_10_depthwise[0][0]          __________________________________________________________________________________________________ block_10_depthwise_relu (ReLU)  (None, 14, 14, 384)  0           block_10_depthwise_BN[0][0]       __________________________________________________________________________________________________ block_10_project (Conv2D)       (None, 14, 14, 96)   36864       block_10_depthwise_relu[0][0]     __________________________________________________________________________________________________ block_10_project_BN (BatchNorma (None, 14, 14, 96)   384         block_10_project[0][0]            __________________________________________________________________________________________________ block_11_expand (Conv2D)        (None, 14, 14, 576)  55296       block_10_project_BN[0][0]         __________________________________________________________________________________________________ block_11_expand_BN (BatchNormal (None, 14, 14, 576)  2304        block_11_expand[0][0]             __________________________________________________________________________________________________ block_11_expand_relu (ReLU)     (None, 14, 14, 576)  0           block_11_expand_BN[0][0]          __________________________________________________________________________________________________ block_11_depthwise (DepthwiseCo (None, 14, 14, 576)  5184        block_11_expand_relu[0][0]        __________________________________________________________________________________________________ block_11_depthwise_BN (BatchNor (None, 14, 14, 576)  2304        block_11_depthwise[0][0]          __________________________________________________________________________________________________ block_11_depthwise_relu (ReLU)  (None, 14, 14, 576)  0           block_11_depthwise_BN[0][0]       __________________________________________________________________________________________________ block_11_project (Conv2D)       (None, 14, 14, 96)   55296       block_11_depthwise_relu[0][0]     __________________________________________________________________________________________________ block_11_project_BN (BatchNorma (None, 14, 14, 96)   384         block_11_project[0][0]            __________________________________________________________________________________________________ block_11_add (Add)              (None, 14, 14, 96)   0           block_10_project_BN[0][0]                                                                          block_11_project_BN[0][0]         __________________________________________________________________________________________________ block_12_expand (Conv2D)        (None, 14, 14, 576)  55296       block_11_add[0][0]                __________________________________________________________________________________________________ block_12_expand_BN (BatchNormal (None, 14, 14, 576)  2304        block_12_expand[0][0]             __________________________________________________________________________________________________ block_12_expand_relu (ReLU)     (None, 14, 14, 576)  0           block_12_expand_BN[0][0]          __________________________________________________________________________________________________ block_12_depthwise (DepthwiseCo (None, 14, 14, 576)  5184        block_12_expand_relu[0][0]        __________________________________________________________________________________________________ block_12_depthwise_BN (BatchNor (None, 14, 14, 576)  2304        block_12_depthwise[0][0]          __________________________________________________________________________________________________ block_12_depthwise_relu (ReLU)  (None, 14, 14, 576)  0           block_12_depthwise_BN[0][0]       __________________________________________________________________________________________________ block_12_project (Conv2D)       (None, 14, 14, 96)   55296       block_12_depthwise_relu[0][0]     __________________________________________________________________________________________________ block_12_project_BN (BatchNorma (None, 14, 14, 96)   384         block_12_project[0][0]            __________________________________________________________________________________________________ block_12_add (Add)              (None, 14, 14, 96)   0           block_11_add[0][0]                                                                                 block_12_project_BN[0][0]         __________________________________________________________________________________________________ block_13_expand (Conv2D)        (None, 14, 14, 576)  55296       block_12_add[0][0]                __________________________________________________________________________________________________ block_13_expand_BN (BatchNormal (None, 14, 14, 576)  2304        block_13_expand[0][0]             __________________________________________________________________________________________________ block_13_expand_relu (ReLU)     (None, 14, 14, 576)  0           block_13_expand_BN[0][0]          __________________________________________________________________________________________________ block_13_pad (ZeroPadding2D)    (None, 15, 15, 576)  0           block_13_expand_relu[0][0]        __________________________________________________________________________________________________ block_13_depthwise (DepthwiseCo (None, 7, 7, 576)    5184        block_13_pad[0][0]                __________________________________________________________________________________________________ block_13_depthwise_BN (BatchNor (None, 7, 7, 576)    2304        block_13_depthwise[0][0]          __________________________________________________________________________________________________ block_13_depthwise_relu (ReLU)  (None, 7, 7, 576)    0           block_13_depthwise_BN[0][0]       __________________________________________________________________________________________________ block_13_project (Conv2D)       (None, 7, 7, 160)    92160       block_13_depthwise_relu[0][0]     __________________________________________________________________________________________________ block_13_project_BN (BatchNorma (None, 7, 7, 160)    640         block_13_project[0][0]            __________________________________________________________________________________________________ block_14_expand (Conv2D)        (None, 7, 7, 960)    153600      block_13_project_BN[0][0]         __________________________________________________________________________________________________ block_14_expand_BN (BatchNormal (None, 7, 7, 960)    3840        block_14_expand[0][0]             __________________________________________________________________________________________________ block_14_expand_relu (ReLU)     (None, 7, 7, 960)    0           block_14_expand_BN[0][0]          __________________________________________________________________________________________________ block_14_depthwise (DepthwiseCo (None, 7, 7, 960)    8640        block_14_expand_relu[0][0]        __________________________________________________________________________________________________ block_14_depthwise_BN (BatchNor (None, 7, 7, 960)    3840        block_14_depthwise[0][0]          __________________________________________________________________________________________________ block_14_depthwise_relu (ReLU)  (None, 7, 7, 960)    0           block_14_depthwise_BN[0][0]       __________________________________________________________________________________________________ block_14_project (Conv2D)       (None, 7, 7, 160)    153600      block_14_depthwise_relu[0][0]     __________________________________________________________________________________________________ block_14_project_BN (BatchNorma (None, 7, 7, 160)    640         block_14_project[0][0]            __________________________________________________________________________________________________ block_14_add (Add)              (None, 7, 7, 160)    0           block_13_project_BN[0][0]                                                                          block_14_project_BN[0][0]         __________________________________________________________________________________________________ block_15_expand (Conv2D)        (None, 7, 7, 960)    153600      block_14_add[0][0]                __________________________________________________________________________________________________ block_15_expand_BN (BatchNormal (None, 7, 7, 960)    3840        block_15_expand[0][0]             __________________________________________________________________________________________________ block_15_expand_relu (ReLU)     (None, 7, 7, 960)    0           block_15_expand_BN[0][0]          __________________________________________________________________________________________________ block_15_depthwise (DepthwiseCo (None, 7, 7, 960)    8640        block_15_expand_relu[0][0]        __________________________________________________________________________________________________ block_15_depthwise_BN (BatchNor (None, 7, 7, 960)    3840        block_15_depthwise[0][0]          __________________________________________________________________________________________________ block_15_depthwise_relu (ReLU)  (None, 7, 7, 960)    0           block_15_depthwise_BN[0][0]       __________________________________________________________________________________________________ block_15_project (Conv2D)       (None, 7, 7, 160)    153600      block_15_depthwise_relu[0][0]     __________________________________________________________________________________________________ block_15_project_BN (BatchNorma (None, 7, 7, 160)    640         block_15_project[0][0]            __________________________________________________________________________________________________ block_15_add (Add)              (None, 7, 7, 160)    0           block_14_add[0][0]                                                                                 block_15_project_BN[0][0]         __________________________________________________________________________________________________ block_16_expand (Conv2D)        (None, 7, 7, 960)    153600      block_15_add[0][0]                __________________________________________________________________________________________________ block_16_expand_BN (BatchNormal (None, 7, 7, 960)    3840        block_16_expand[0][0]             __________________________________________________________________________________________________ block_16_expand_relu (ReLU)     (None, 7, 7, 960)    0           block_16_expand_BN[0][0]          __________________________________________________________________________________________________ block_16_depthwise (DepthwiseCo (None, 7, 7, 960)    8640        block_16_expand_relu[0][0]        __________________________________________________________________________________________________ block_16_depthwise_BN (BatchNor (None, 7, 7, 960)    3840        block_16_depthwise[0][0]          __________________________________________________________________________________________________ block_16_depthwise_relu (ReLU)  (None, 7, 7, 960)    0           block_16_depthwise_BN[0][0]       __________________________________________________________________________________________________ block_16_project (Conv2D)       (None, 7, 7, 320)    307200      block_16_depthwise_relu[0][0]     __________________________________________________________________________________________________ block_16_project_BN (BatchNorma (None, 7, 7, 320)    1280        block_16_project[0][0]            __________________________________________________________________________________________________ Conv_1 (Conv2D)                 (None, 7, 7, 1280)   409600      block_16_project_BN[0][0]         __________________________________________________________________________________________________ Conv_1_bn (BatchNormalization)  (None, 7, 7, 1280)   5120        Conv_1[0][0]                      __________________________________________________________________________________________________ out_relu (ReLU)                 (None, 7, 7, 1280)   0           Conv_1_bn[0][0]                   __________________________________________________________________________________________________ global_average_pooling2d (Globa (None, 1280)         0           out_relu[0][0]                    __________________________________________________________________________________________________ predictions (Dense)             (None, 1000)         1281000     global_average_pooling2d[0][0]    ================================================================================================== Total params: 3,538,984 Trainable params: 3,504,872 Non-trainable params: 34,112 __________________________________________________________________________________________________</pre><p>Now after loading the model and setting up the parameters it is the time f
…
 the image shown below.</p><pre>Model: &quot;mobilenetv2_1.00_None&quot; __________________________________________________________________________________________________ Layer (type)                    Output Shape         Param #     Connected to                      ================================================================================================== input_2 (InputLayer)            [(None, 32, 32, 3)]  0                                             __________________________________________________________________________________________________ Conv1 (Conv2D)                  (None, 16, 16, 32)   864         input_2[0][0]                     __________________________________________________________________________________________________ bn_Conv1 (BatchNormalization)   (None, 16, 16, 32)   128         Conv1[0][0]                       __________________________________________________________________________________________________ Conv1_relu (ReLU)               (None, 16, 16, 32)   0           bn_Conv1[0][0]                    __________________________________________________________________________________________________ expanded_conv_depthwise (Depthw (None, 16, 16, 32)   288         Conv1_relu[0][0]                  __________________________________________________________________________________________________ expanded_conv_depthwise_BN (Bat (None, 16, 16, 32)   128         expanded_conv_depthwise[0][0]     __________________________________________________________________________________________________ expanded_conv_depthwise_relu (R (None, 16, 16, 32)   0           expanded_conv_depthwise_BN[0][0]  __________________________________________________________________________________________________ expanded_conv_project (Conv2D)  (None, 16, 16, 16)   512         expanded_conv_depthwise_relu[0][0 __________________________________________________________________________________________________ expanded_conv_project_BN (Batch (None, 16, 16, 16)   64          expanded_conv_project[0][0]       __________________________________________________________________________________________________ block_1_expand (Conv2D)         (None, 16, 16, 96)   1536        expanded_conv_project_BN[0][0]    __________________________________________________________________________________________________ block_1_expand_BN (BatchNormali (None, 16, 16, 96)   384         block_1_expand[0][0]              __________________________________________________________________________________________________ block_1_expand_relu (ReLU)      (None, 16, 16, 96)   0           block_1_expand_BN[0][0]           __________________________________________________________________________________________________ block_1_pad (ZeroPadding2D)     (None, 17, 17, 96)   0           block_1_expand_relu[0][0]         __________________________________________________________________________________________________ block_1_depthwise (DepthwiseCon (None, 8, 8, 96)     864         block_1_pad[0][0]                 __________________________________________________________________________________________________ block_1_depthwise_BN (BatchNorm (None, 8, 8, 96)     384         block_1_depthwise[0][0]           __________________________________________________________________________________________________ block_1_depthwise_relu (ReLU)   (None, 8, 8, 96)     0           block_1_depthwise_BN[0][0]        __________________________________________________________________________________________________ block_1_project (Conv2D)        (None, 8, 8, 24)     2304        block_1_depthwise_relu[0][0]      __________________________________________________________________________________________________ block_1_project_BN (BatchNormal (None, 8, 8, 24)     96          block_1_project[0][0]             __________________________________________________________________________________________________ block_2_expand (Conv2D)         (None, 8, 8, 144)    3456        block_1_project_BN[0][0]          __________________________________________________________________________________________________ block_2_expand_BN (BatchNormali (None, 8, 8, 144)    576         block_2_expand[0][0]              __________________________________________________________________________________________________ block_2_expand_relu (ReLU)      (None, 8, 8, 144)    0           block_2_expand_BN[0][0]           __________________________________________________________________________________________________ block_2_depthwise (DepthwiseCon (None, 8, 8, 144)    1296        block_2_expand_relu[0][0]         __________________________________________________________________________________________________ block_2_depthwise_BN (BatchNorm (None, 8, 8, 144)    576         block_2_depthwise[0][0]           __________________________________________________________________________________________________ block_2_depthwise_relu (ReLU)   (None, 8, 8, 144)    0           block_2_depthwise_BN[0][0]        __________________________________________________________________________________________________ block_2_project (Conv2D)        (None, 8, 8, 24)     3456        block_2_depthwise_relu[0][0]      __________________________________________________________________________________________________ block_2_project_BN (BatchNormal (None, 8, 8, 24)     96          block_2_project[0][0]             __________________________________________________________________________________________________ block_2_add (Add)               (None, 8, 8, 24)     0           block_1_project_BN[0][0]                                                                           block_2_project_BN[0][0]          __________________________________________________________________________________________________ block_3_expand (Conv2D)         (None, 8, 8, 144)    3456        block_2_add[0][0]                 __________________________________________________________________________________________________ block_3_expand_BN (BatchNormali (None, 8, 8, 144)    576         block_3_expand[0][0]              __________________________________________________________________________________________________ block_3_expand_relu (ReLU)      (None, 8, 8, 144)    0           block_3_expand_BN[0][0]           __________________________________________________________________________________________________ block_3_pad (ZeroPadding2D)     (None, 9, 9, 144)    0           block_3_expand_relu[0][0]         __________________________________________________________________________________________________ block_3_depthwise (DepthwiseCon (None, 4, 4, 144)    1296        block_3_pad[0][0]                 __________________________________________________________________________________________________ block_3_depthwise_BN (BatchNorm (None, 4, 4, 144)    576         block_3_depthwise[0][0]           __________________________________________________________________________________________________ block_3_depthwise_relu (ReLU)   (None, 4, 4, 144)    0           block_3_depthwise_BN[0][0]        __________________________________________________________________________________________________ block_3_project (Conv2D)        (None, 4, 4, 32)     4608        block_3_depthwise_relu[0][0]      __________________________________________________________________________________________________ block_3_project_BN (BatchNormal (None, 4, 4, 32)     128         block_3_project[0][0]             __________________________________________________________________________________________________ block_4_expand (Conv2D)         (None, 4, 4, 192)    6144        block_3_project_BN[0][0]          __________________________________________________________________________________________________ block_4_expand_BN (BatchNormali (None, 4, 4, 192)    768         block_4_expand[0][0]              __________________________________________________________________________________________________ block_4_expand_relu (ReLU)      (None, 4, 4, 192)    0           block_4_expand_BN[0][0]           __________________________________________________________________________________________________ block_4_depthwise (DepthwiseCon (None, 4, 4, 192)    1728        block_4_expand_relu[0][0]         __________________________________________________________________________________________________ block_4_depthwise_BN (BatchNorm (None, 4, 4, 192)    768         block_4_depthwise[0][0]           __________________________________________________________________________________________________ block_4_depthwise_relu (ReLU)   (None, 4, 4, 192)    0           block_4_depthwise_BN[0][0]        __________________________________________________________________________________________________ block_4_project (Conv2D)        (None, 4, 4, 32)     6144        block_4_depthwise_relu[0][0]      __________________________________________________________________________________________________ block_4_project_BN (BatchNormal (None, 4, 4, 32)     128         block_4_project[0][0]             __________________________________________________________________________________________________ block_4_add (Add)               (None, 4, 4, 32)     0           block_3_project_BN[0][0]                                                                           block_4_project_BN[0][0]          __________________________________________________________________________________________________ block_5_expand (Conv2D)         (None, 4, 4, 192)    6144        block_4_add[0][0]                 __________________________________________________________________________________________________ block_5_expand_BN (BatchNormali (None, 4, 4, 192)    768         block_5_expand[0][0]              __________________________________________________________________________________________________ block_5_expand_relu (ReLU)      (None, 4, 4, 192)    0           block_5_expand_BN[0][0]           __________________________________________________________________________________________________ block_5_depthwise (DepthwiseCon (None, 4, 4, 192)    1728        block_5_expand_relu[0][0]         __________________________________________________________________________________________________ block_5_depthwise_BN (BatchNorm (None, 4, 4, 192)    768         block_5_depthwise[0][0]           __________________________________________________________________________________________________ block_5_depthwise_relu (ReLU)   (None, 4, 4, 192)    0           block_5_depthwise_BN[0][0]        __________________________________________________________________________________________________ block_5_project (Conv2D)        (None, 4, 4, 32)     6144        block_5_depthwise_relu[0][0]      __________________________________________________________________________________________________ block_5_project_BN (BatchNormal (None, 4, 4, 32)     128         block_5_project[0][0]             __________________________________________________________________________________________________ block_5_add (Add)               (None, 4, 4, 32)     0           block_4_add[0][0]                                                                                  block_5_project_BN[0][0]          __________________________________________________________________________________________________ block_6_expand (Conv2D)         (None, 4, 4, 192)    6144        block_5_add[0][0]                 __________________________________________________________________________________________________ block_6_expand_BN (BatchNormali (None, 4, 4, 192)    768         block_6_expand[0][0]              __________________________________________________________________________________________________ block_6_expand_relu (ReLU)      (None, 4, 4, 192)    0           block_6_expand_BN[0][0]           __________________________________________________________________________________________________ block_6_pad (ZeroPadding2D)     (None, 5, 5, 192)    0           block_6_expand_relu[0][0]         __________________________________________________________________________________________________ block_6_depthwise (DepthwiseCon (None, 2, 2, 192)    1728        block_6_pad[0][0]                 __________________________________________________________________________________________________ block_6_depthwise_BN (BatchNorm (None, 2, 2, 192)    768         block_6_depthwise[0][0]           __________________________________________________________________________________________________ block_6_depthwise_relu (ReLU)   (None, 2, 2, 192)    0           block_6_depthwise_BN[0][0]        __________________________________________________________________________________________________ block_6_project (Conv2D)        (None, 2, 2, 64)     12288       block_6_depthwise_relu[0][0]      __________________________________________________________________________________________________ block_6_project_BN (BatchNormal (None, 2, 2, 64)     256         block_6_project[0][0]             __________________________________________________________________________________________________ block_7_expand (Conv2D)         (None, 2, 2, 384)    24576       block_6_project_BN[0][0]          __________________________________________________________________________________________________ block_7_expand_BN (BatchNormali (None, 2, 2, 384)    1536        block_7_expand[0][0]              __________________________________________________________________________________________________ block_7_expand_relu (ReLU)      (None, 2, 2, 384)    0           block_7_expand_BN[0][0]           __________________________________________________________________________________________________ block_7_depthwise (DepthwiseCon (None, 2, 2, 384)    3456        block_7_expand_relu[0][0]         __________________________________________________________________________________________________ block_7_depthwise_BN (BatchNorm (None, 2, 2, 384)    1536        block_7_depthwise[0][0]           __________________________________________________________________________________________________ block_7_depthwise_relu (ReLU)   (None, 2, 2, 384)    0           block_7_depthwise_BN[0][0]        __________________________________________________________________________________________________ block_7_project (Conv2D)        (None, 2, 2, 64)     24576       block_7_depthwise_relu[0][0]      __________________________________________________________________________________________________ block_7_project_BN (BatchNormal (None, 2, 2, 64)     256         block_7_project[0][0]             __________________________________________________________________________________________________ block_7_add (Add)               (None, 2, 2, 64)     0           block_6_project_BN[0][0]                                                                           block_7_project_BN[0][0]          __________________________________________________________________________________________________ block_8_expand (Conv2D)         (None, 2, 2, 384)    24576       block_7_add[0][0]                 __________________________________________________________________________________________________ block_8_expand_BN (BatchNormali (None, 2, 2, 384)    1536        block_8_expand[0][0]              __________________________________________________________________________________________________ block_8_expand_relu (ReLU)      (None, 2, 2, 384)    0           block_8_expand_BN[0][0]           __________________________________________________________________________________________________ block_8_depthwise (DepthwiseCon (None, 2, 2, 384)    3456        block_8_expand_relu[0][0]         __________________________________________________________________________________________________ block_8_depthwise_BN (BatchNorm (None, 2, 2, 384)    1536        block_8_depthwise[0][0]           __________________________________________________________________________________________________ block_8_depthwise_relu (ReLU)   (None, 2, 2, 384)    0           block_8_depthwise_BN[0][0]        __________________________________________________________________________________________________ block_8_project (Conv2D)        (None, 2, 2, 64)     24576       block_8_depthwise_relu[0][0]      __________________________________________________________________________________________________ block_8_project_BN (BatchNormal (None, 2, 2, 64)     256         block_8_project[0][0]             __________________________________________________________________________________________________ block_8_add (Add)               (None, 2, 2, 64)     0           block_7_add[0][0]                                                                                  block_8_project_BN[0][0]          __________________________________________________________________________________________________ block_9_expand (Conv2D)         (None, 2, 2, 384)    24576       block_8_add[0][0]                 __________________________________________________________________________________________________ block_9_expand_BN (BatchNormali (None, 2, 2, 384)    1536        block_9_expand[0][0]              __________________________________________________________________________________________________ block_9_expand_relu (ReLU)      (None, 2, 2, 384)    0           block_9_expand_BN[0][0]           __________________________________________________________________________________________________ block_9_depthwise (DepthwiseCon (None, 2, 2, 384)    3456        block_9_expand_relu[0][0]         __________________________________________________________________________________________________ block_9_depthwise_BN (BatchNorm (None, 2, 2, 384)    1536        block_9_depthwise[0][0]           __________________________________________________________________________________________________ block_9_depthwise_relu (ReLU)   (None, 2, 2, 384)    0           block_9_depthwise_BN[0][0]        __________________________________________________________________________________________________ block_9_project (Conv2D)        (None, 2, 2, 64)     24576       block_9_depthwise_relu[0][0]      __________________________________________________________________________________________________ block_9_project_BN (BatchNormal (None, 2, 2, 64)     256         block_9_project[0][0]             __________________________________________________________________________________________________ block_9_add (Add)               (None, 2, 2, 64)     0           block_8_add[0][0]                                                                                  block_9_project_BN[0][0]          __________________________________________________________________________________________________ block_10_expand (Conv2D)        (None, 2, 2, 384)    24576       block_9_add[0][0]                 __________________________________________________________________________________________________ block_10_expand_BN (BatchNormal (None, 2, 2, 384)    1536        block_10_expand[0][0]             __________________________________________________________________________________________________ block_10_expand_relu (ReLU)     (None, 2, 2, 384)    0           block_10_expand_BN[0][0]          __________________________________________________________________________________________________ block_10_depthwise (DepthwiseCo (None, 2, 2, 384)    3456        block_10_expand_relu[0][0]        __________________________________________________________________________________________________ block_10_depthwise_BN (BatchNor (None, 2, 2, 384)    1536        block_10_depthwise[0][0]          __________________________________________________________________________________________________ block_10_depthwise_relu (ReLU)  (None, 2, 2, 384)    0           block_10_depthwise_BN[0][0]       __________________________________________________________________________________________________ block_10_project (Conv2D)       (None, 2, 2, 96)     36864       block_10_depthwise_relu[0][0]     __________________________________________________________________________________________________ block_10_project_BN (BatchNorma (None, 2, 2, 96)     384         block_10_project[0][0]            __________________________________________________________________________________________________ block_11_expand (Conv2D)        (None, 2, 2, 576)    55296       block_10_project_BN[0][0]         __________________________________________________________________________________________________ block_11_expand_BN (BatchNormal (None, 2, 2, 576)    2304        block_11_expand[0][0]             __________________________________________________________________________________________________ block_11_expand_relu (ReLU)     (None, 2, 2, 576)    0           block_11_expand_BN[0][0]          __________________________________________________________________________________________________ block_11_depthwise (DepthwiseCo (None, 2, 2, 576)    5184        block_11_expand_relu[0][0]        __________________________________________________________________________________________________ block_11_depthwise_BN (BatchNor (None, 2, 2, 576)    2304        block_11_depthwise[0][0]          __________________________________________________________________________________________________ block_11_depthwise_relu (ReLU)  (None, 2, 2, 576)    0           block_11_depthwise_BN[0][0]       __________________________________________________________________________________________________ block_11_project (Conv2D)       (None, 2, 2, 96)     55296       block_11_depthwise_relu[0][0]     __________________________________________________________________________________________________ block_11_project_BN (BatchNorma (None, 2, 2, 96)     384         block_11_project[0][0]            __________________________________________________________________________________________________ block_11_add (Add)              (None, 2, 2, 96)     0           block_10_project_BN[0][0]                                                                          block_11_project_BN[0][0]         __________________________________________________________________________________________________ block_12_expand (Conv2D)        (None, 2, 2, 576)    55296       block_11_add[0][0]                __________________________________________________________________________________________________ block_12_expand_BN (BatchNormal (None, 2, 2, 576)    2304        block_12_expand[0][0]             __________________________________________________________________________________________________ block_12_expand_relu (ReLU)     (None, 2, 2, 576)    0           block_12_expand_BN[0][0]          __________________________________________________________________________________________________ block_12_depthwise (DepthwiseCo (None, 2, 2, 576)    5184        block_12_expand_relu[0][0]        __________________________________________________________________________________________________ block_12_depthwise_BN (BatchNor (None, 2, 2, 576)    2304        block_12_depthwise[0][0]          __________________________________________________________________________________________________ block_12_depthwise_relu (ReLU)  (None, 2, 2, 576)    0           block_12_depthwise_BN[0][0]       __________________________________________________________________________________________________ block_12_project (Conv2D)       (None, 2, 2, 96)     55296       block_12_depthwise_relu[0][0]     __________________________________________________________________________________________________ block_12_project_BN (BatchNorma (None, 2, 2, 96)     384         block_12_project[0][0]            __________________________________________________________________________________________________ block_12_add (Add)              (None, 2, 2, 96)     0           block_11_add[0][0]                                                                                 block_12_project_BN[0][0]         __________________________________________________________________________________________________ block_13_expand (Conv2D)        (None, 2, 2, 576)    55296       block_12_add[0][0]                __________________________________________________________________________________________________ block_13_expand_BN (BatchNormal (None, 2, 2, 576)    2304        block_13_expand[0][0]             __________________________________________________________________________________________________ block_13_expand_relu (ReLU)     (None, 2, 2, 576)    0           block_13_expand_BN[0][0]          __________________________________________________________________________________________________ block_13_pad (ZeroPadding2D)    (None, 3, 3, 576)    0           block_13_expand_relu[0][0]        __________________________________________________________________________________________________ block_13_depthwise (DepthwiseCo (None, 1, 1, 576)    5184        block_13_pad[0][0]                __________________________________________________________________________________________________ block_13_depthwise_BN (BatchNor (None, 1, 1, 576)    2304        block_13_depthwise[0][0]          __________________________________________________________________________________________________ block_13_depthwise_relu (ReLU)  (None, 1, 1, 576)    0           block_13_depthwise_BN[0][0]       __________________________________________________________________________________________________ block_13_project (Conv2D)       (None, 1, 1, 160)    92160       block_13_depthwise_relu[0][0]     __________________________________________________________________________________________________ block_13_project_BN (BatchNorma (None, 1, 1, 160)    640         block_13_project[0][0]            __________________________________________________________________________________________________ block_14_expand (Conv2D)        (None, 1, 1, 960)    153600      block_13_project_BN[0][0]         __________________________________________________________________________________________________ block_14_expand_BN (BatchNormal (None, 1, 1, 960)    3840        block_14_expand[0][0]             __________________________________________________________________________________________________ block_14_expand_relu (ReLU)     (None, 1, 1, 960)    0           block_14_expand_BN[0][0]          __________________________________________________________________________________________________ block_14_depthwise (DepthwiseCo (None, 1, 1, 960)    8640        block_14_expand_relu[0][0]        __________________________________________________________________________________________________ block_14_depthwise_BN (BatchNor (None, 1, 1, 960)    3840        block_14_depthwise[0][0]          __________________________________________________________________________________________________ block_14_depthwise_relu (ReLU)  (None, 1, 1, 960)    0           block_14_depthwise_BN[0][0]       __________________________________________________________________________________________________ block_14_project (Conv2D)       (None, 1, 1, 160)    153600      block_14_depthwise_relu[0][0]     __________________________________________________________________________________________________ block_14_project_BN (BatchNorma (None, 1, 1, 160)    640         block_14_project[0][0]            __________________________________________________________________________________________________ block_14_add (Add)              (None, 1, 1, 160)    0           block_13_project_BN[0][0]                                                                          block_14_project_BN[0][0]         __________________________________________________________________________________________________ block_15_expand (Conv2D)        (None, 1, 1, 960)    153600      block_14_add[0][0]                __________________________________________________________________________________________________ block_15_expand_BN (BatchNormal (None, 1, 1, 960)    3840        block_15_expand[0][0]             __________________________________________________________________________________________________ block_15_expand_relu (ReLU)     (None, 1, 1, 960)    0           block_15_expand_BN[0][0]          __________________________________________________________________________________________________ block_15_depthwise (DepthwiseCo (None, 1, 1, 960)    8640        block_15_expand_relu[0][0]        __________________________________________________________________________________________________ block_15_depthwise_BN (BatchNor (None, 1, 1, 960)    3840        block_15_depthwise[0][0]          __________________________________________________________________________________________________ block_15_depthwise_relu (ReLU)  (None, 1, 1, 960)    0           block_15_depthwise_BN[0][0]       __________________________________________________________________________________________________ block_15_project (Conv2D)       (None, 1, 1, 160)    153600      block_15_depthwise_relu[0][0]     __________________________________________________________________________________________________ block_15_project_BN (BatchNorma (None, 1, 1, 160)    640         block_15_project[0][0]            __________________________________________________________________________________________________ block_15_add (Add)              (None, 1, 1, 160)    0           block_14_add[0][0]                                                                                 block_15_project_BN[0][0]         __________________________________________________________________________________________________ block_16_expand (Conv2D)        (None, 1, 1, 960)    153600      block_15_add[0][0]                __________________________________________________________________________________________________ block_16_expand_BN (BatchNormal (None, 1, 1, 960)    3840        block_16_expand[0][0]             __________________________________________________________________________________________________ block_16_expand_relu (ReLU)     (None, 1, 1, 960)    0           block_16_expand_BN[0][0]          __________________________________________________________________________________________________ block_16_depthwise (DepthwiseCo (None, 1, 1, 960)    8640        block_16_expand_relu[0][0]        __________________________________________________________________________________________________ block_16_depthwise_BN (BatchNor (None, 1, 1, 960)    3840        block_16_depthwise[0][0]          __________________________________________________________________________________________________ block_16_depthwise_relu (ReLU)  (None, 1, 1, 960)    0           block_16_depthwise_BN[0][0]       __________________________________________________________________________________________________ block_16_project (Conv2D)       (None, 1, 1, 320)    307200      block_16_depthwise_relu[0][0]     __________________________________________________________________________________________________ block_16_project_BN (BatchNorma (None, 1, 1, 320)    1280        block_16_project[0][0]            __________________________________________________________________________________________________ Conv_1 (Conv2D)                 (None, 1, 1, 1280)   409600      block_16_project_BN[0][0]         __________________________________________________________________________________________________ Conv_1_bn (BatchNormalization)  (None, 1, 1, 1280)   5120        Conv_1[0][0]                      __________________________________________________________________________________________________ out_relu (ReLU)                 (None, 1, 1, 1280)   0           Conv_1_bn[0][0]                   ================================================================================================== Total params: 2,257,984 Trainable params: 2,223,872 Non-trainable params: 34,112 ________________________________________________________________________________________________________________________________</pre><p>Since we are using the Mobilenet as a 
…
ry of the model which is shown below:</p><pre>Model: &quot;model_1&quot; __________________________________________________________________________________________________ Layer (type)                    Output Shape         Param #     Connected to                      ================================================================================================== input_3 (InputLayer)            [(None, 32, 32, 3)]  0                                             __________________________________________________________________________________________________ Conv1 (Conv2D)                  (None, 16, 16, 32)   864         input_3[0][0]                     __________________________________________________________________________________________________ bn_Conv1 (BatchNormalization)   (None, 16, 16, 32)   128         Conv1[0][0]                       __________________________________________________________________________________________________ Conv1_relu (ReLU)               (None, 16, 16, 32)   0           bn_Conv1[0][0]                    __________________________________________________________________________________________________ expanded_conv_depthwise (Depthw (None, 16, 16, 32)   288         Conv1_relu[0][0]                  __________________________________________________________________________________________________ expanded_conv_depthwise_BN (Bat (None, 16, 16, 32)   128         expanded_conv_depthwise[0][0]     __________________________________________________________________________________________________ expanded_conv_depthwise_relu (R (None, 16, 16, 32)   0           expanded_conv_depthwise_BN[0][0]  __________________________________________________________________________________________________ expanded_conv_project (Conv2D)  (None, 16, 16, 16)   512         expanded_conv_depthwise_relu[0][0 __________________________________________________________________________________________________ expanded_conv_project_BN (Batch (None, 16, 16, 16)   64          expanded_conv_project[0][0]       __________________________________________________________________________________________________ block_1_expand (Conv2D)         (None, 16, 16, 96)   1536        expanded_conv_project_BN[0][0]    __________________________________________________________________________________________________ block_1_expand_BN (BatchNormali (None, 16, 16, 96)   384         block_1_expand[0][0]              __________________________________________________________________________________________________ block_1_expand_relu (ReLU)      (None, 16, 16, 96)   0           block_1_expand_BN[0][0]           __________________________________________________________________________________________________ block_1_pad (ZeroPadding2D)     (None, 17, 17, 96)   0           block_1_expand_relu[0][0]         __________________________________________________________________________________________________ block_1_depthwise (DepthwiseCon (None, 8, 8, 96)     864         block_1_pad[0][0]                 __________________________________________________________________________________________________ block_1_depthwise_BN (BatchNorm (None, 8, 8, 96)     384         block_1_depthwise[0][0]           __________________________________________________________________________________________________ block_1_depthwise_relu (ReLU)   (None, 8, 8, 96)     0           block_1_depthwise_BN[0][0]        __________________________________________________________________________________________________ block_1_project (Conv2D)        (None, 8, 8, 24)     2304        block_1_depthwise_relu[0][0]      __________________________________________________________________________________________________ block_1_project_BN (BatchNormal (None, 8, 8, 24)     96          block_1_project[0][0]             __________________________________________________________________________________________________ block_2_expand (Conv2D)         (None, 8, 8, 144)    3456        block_1_project_BN[0][0]          __________________________________________________________________________________________________ block_2_expand_BN (BatchNormali (None, 8, 8, 144)    576         block_2_expand[0][0]              __________________________________________________________________________________________________ block_2_expand_relu (ReLU)      (None, 8, 8, 144)    0           block_2_expand_BN[0][0]           __________________________________________________________________________________________________ block_2_depthwise (DepthwiseCon (None, 8, 8, 144)    1296        block_2_expand_relu[0][0]         __________________________________________________________________________________________________ block_2_depthwise_BN (BatchNorm (None, 8, 8, 144)    576         block_2_depthwise[0][0]           __________________________________________________________________________________________________ block_2_depthwise_relu (ReLU)   (None, 8, 8, 144)    0           block_2_depthwise_BN[0][0]        __________________________________________________________________________________________________ block_2_project (Conv2D)        (None, 8, 8, 24)     3456        block_2_depthwise_relu[0][0]      __________________________________________________________________________________________________ block_2_project_BN (BatchNormal (None, 8, 8, 24)     96          block_2_project[0][0]             __________________________________________________________________________________________________ block_2_add (Add)               (None, 8, 8, 24)     0           block_1_project_BN[0][0]                                                                           block_2_project_BN[0][0]          __________________________________________________________________________________________________ block_3_expand (Conv2D)         (None, 8, 8, 144)    3456        block_2_add[0][0]                 __________________________________________________________________________________________________ block_3_expand_BN (BatchNormali (None, 8, 8, 144)    576         block_3_expand[0][0]              __________________________________________________________________________________________________ block_3_expand_relu (ReLU)      (None, 8, 8, 144)    0           block_3_expand_BN[0][0]           __________________________________________________________________________________________________ block_3_pad (ZeroPadding2D)     (None, 9, 9, 144)    0           block_3_expand_relu[0][0]         __________________________________________________________________________________________________ block_3_depthwise (DepthwiseCon (None, 4, 4, 144)    1296        block_3_pad[0][0]                 __________________________________________________________________________________________________ block_3_depthwise_BN (BatchNorm (None, 4, 4, 144)    576         block_3_depthwise[0][0]           __________________________________________________________________________________________________ block_3_depthwise_relu (ReLU)   (None, 4, 4, 144)    0           block_3_depthwise_BN[0][0]        __________________________________________________________________________________________________ block_3_project (Conv2D)        (None, 4, 4, 32)     4608        block_3_depthwise_relu[0][0]      __________________________________________________________________________________________________ block_3_project_BN (BatchNormal (None, 4, 4, 32)     128         block_3_project[0][0]             __________________________________________________________________________________________________ block_4_expand (Conv2D)         (None, 4, 4, 192)    6144        block_3_project_BN[0][0]          __________________________________________________________________________________________________ block_4_expand_BN (BatchNormali (None, 4, 4, 192)    768         block_4_expand[0][0]              __________________________________________________________________________________________________ block_4_expand_relu (ReLU)      (None, 4, 4, 192)    0           block_4_expand_BN[0][0]           __________________________________________________________________________________________________ block_4_depthwise (DepthwiseCon (None, 4, 4, 192)    1728        block_4_expand_relu[0][0]         __________________________________________________________________________________________________ block_4_depthwise_BN (BatchNorm (None, 4, 4, 192)    768         block_4_depthwise[0][0]           __________________________________________________________________________________________________ block_4_depthwise_relu (ReLU)   (None, 4, 4, 192)    0           block_4_depthwise_BN[0][0]        __________________________________________________________________________________________________ block_4_project (Conv2D)        (None, 4, 4, 32)     6144        block_4_depthwise_relu[0][0]      __________________________________________________________________________________________________ block_4_project_BN (BatchNormal (None, 4, 4, 32)     128         block_4_project[0][0]             __________________________________________________________________________________________________ block_4_add (Add)               (None, 4, 4, 32)     0           block_3_project_BN[0][0]                                                                           block_4_project_BN[0][0]          __________________________________________________________________________________________________ block_5_expand (Conv2D)         (None, 4, 4, 192)    6144        block_4_add[0][0]                 __________________________________________________________________________________________________ block_5_expand_BN (BatchNormali (None, 4, 4, 192)    768         block_5_expand[0][0]              __________________________________________________________________________________________________ block_5_expand_relu (ReLU)      (None, 4, 4, 192)    0           block_5_expand_BN[0][0]           __________________________________________________________________________________________________ block_5_depthwise (DepthwiseCon (None, 4, 4, 192)    1728        block_5_expand_relu[0][0]         __________________________________________________________________________________________________ block_5_depthwise_BN (BatchNorm (None, 4, 4, 192)    768         block_5_depthwise[0][0]           __________________________________________________________________________________________________ block_5_depthwise_relu (ReLU)   (None, 4, 4, 192)    0           block_5_depthwise_BN[0][0]        __________________________________________________________________________________________________ block_5_project (Conv2D)        (None, 4, 4, 32)     6144        block_5_depthwise_relu[0][0]      __________________________________________________________________________________________________ block_5_project_BN (BatchNormal (None, 4, 4, 32)     128         block_5_project[0][0]             __________________________________________________________________________________________________ block_5_add (Add)               (None, 4, 4, 32)     0           block_4_add[0][0]                                                                                  block_5_project_BN[0][0]          __________________________________________________________________________________________________ block_6_expand (Conv2D)         (None, 4, 4, 192)    6144        block_5_add[0][0]                 __________________________________________________________________________________________________ block_6_expand_BN (BatchNormali (None, 4, 4, 192)    768         block_6_expand[0][0]              __________________________________________________________________________________________________ block_6_expand_relu (ReLU)      (None, 4, 4, 192)    0           block_6_expand_BN[0][0]           __________________________________________________________________________________________________ block_6_pad (ZeroPadding2D)     (None, 5, 5, 192)    0           block_6_expand_relu[0][0]         __________________________________________________________________________________________________ block_6_depthwise (DepthwiseCon (None, 2, 2, 192)    1728        block_6_pad[0][0]                 __________________________________________________________________________________________________ block_6_depthwise_BN (BatchNorm (None, 2, 2, 192)    768         block_6_depthwise[0][0]           __________________________________________________________________________________________________ block_6_depthwise_relu (ReLU)   (None, 2, 2, 192)    0           block_6_depthwise_BN[0][0]        __________________________________________________________________________________________________ block_6_project (Conv2D)        (None, 2, 2, 64)     12288       block_6_depthwise_relu[0][0]      __________________________________________________________________________________________________ block_6_project_BN (BatchNormal (None, 2, 2, 64)     256         block_6_project[0][0]             __________________________________________________________________________________________________ block_7_expand (Conv2D)         (None, 2, 2, 384)    24576       block_6_project_BN[0][0]          __________________________________________________________________________________________________ block_7_expand_BN (BatchNormali (None, 2, 2, 384)    1536        block_7_expand[0][0]              __________________________________________________________________________________________________ block_7_expand_relu (ReLU)      (None, 2, 2, 384)    0           block_7_expand_BN[0][0]           __________________________________________________________________________________________________ block_7_depthwise (DepthwiseCon (None, 2, 2, 384)    3456        block_7_expand_relu[0][0]         __________________________________________________________________________________________________ block_7_depthwise_BN (BatchNorm (None, 2, 2, 384)    1536        block_7_depthwise[0][0]           __________________________________________________________________________________________________ block_7_depthwise_relu (ReLU)   (None, 2, 2, 384)    0           block_7_depthwise_BN[0][0]        __________________________________________________________________________________________________ block_7_project (Conv2D)        (None, 2, 2, 64)     24576       block_7_depthwise_relu[0][0]      __________________________________________________________________________________________________ block_7_project_BN (BatchNormal (None, 2, 2, 64)     256         block_7_project[0][0]             __________________________________________________________________________________________________ block_7_add (Add)               (None, 2, 2, 64)     0           block_6_project_BN[0][0]                                                                           block_7_project_BN[0][0]          __________________________________________________________________________________________________ block_8_expand (Conv2D)         (None, 2, 2, 384)    24576       block_7_add[0][0]                 __________________________________________________________________________________________________ block_8_expand_BN (BatchNormali (None, 2, 2, 384)    1536        block_8_expand[0][0]              __________________________________________________________________________________________________ block_8_expand_relu (ReLU)      (None, 2, 2, 384)    0           block_8_expand_BN[0][0]           __________________________________________________________________________________________________ block_8_depthwise (DepthwiseCon (None, 2, 2, 384)    3456        block_8_expand_relu[0][0]         __________________________________________________________________________________________________ block_8_depthwise_BN (BatchNorm (None, 2, 2, 384)    1536        block_8_depthwise[0][0]           __________________________________________________________________________________________________ block_8_depthwise_relu (ReLU)   (None, 2, 2, 384)    0           block_8_depthwise_BN[0][0]        __________________________________________________________________________________________________ block_8_project (Conv2D)        (None, 2, 2, 64)     24576       block_8_depthwise_relu[0][0]      __________________________________________________________________________________________________ block_8_project_BN (BatchNormal (None, 2, 2, 64)     256         block_8_project[0][0]             __________________________________________________________________________________________________ block_8_add (Add)               (None, 2, 2, 64)     0           block_7_add[0][0]                                                                                  block_8_project_BN[0][0]          __________________________________________________________________________________________________ block_9_expand (Conv2D)         (None, 2, 2, 384)    24576       block_8_add[0][0]                 __________________________________________________________________________________________________ block_9_expand_BN (BatchNormali (None, 2, 2, 384)    1536        block_9_expand[0][0]              __________________________________________________________________________________________________ block_9_expand_relu (ReLU)      (None, 2, 2, 384)    0           block_9_expand_BN[0][0]           __________________________________________________________________________________________________ block_9_depthwise (DepthwiseCon (None, 2, 2, 384)    3456        block_9_expand_relu[0][0]         __________________________________________________________________________________________________ block_9_depthwise_BN (BatchNorm (None, 2, 2, 384)    1536        block_9_depthwise[0][0]           __________________________________________________________________________________________________ block_9_depthwise_relu (ReLU)   (None, 2, 2, 384)    0           block_9_depthwise_BN[0][0]        __________________________________________________________________________________________________ block_9_project (Conv2D)        (None, 2, 2, 64)     24576       block_9_depthwise_relu[0][0]      __________________________________________________________________________________________________ block_9_project_BN (BatchNormal (None, 2, 2, 64)     256         block_9_project[0][0]             __________________________________________________________________________________________________ block_9_add (Add)               (None, 2, 2, 64)     0           block_8_add[0][0]                                                                                  block_9_project_BN[0][0]          __________________________________________________________________________________________________ block_10_expand (Conv2D)        (None, 2, 2, 384)    24576       block_9_add[0][0]                 __________________________________________________________________________________________________ block_10_expand_BN (BatchNormal (None, 2, 2, 384)    1536        block_10_expand[0][0]             __________________________________________________________________________________________________ block_10_expand_relu (ReLU)     (None, 2, 2, 384)    0           block_10_expand_BN[0][0]          __________________________________________________________________________________________________ block_10_depthwise (DepthwiseCo (None, 2, 2, 384)    3456        block_10_expand_relu[0][0]        __________________________________________________________________________________________________ block_10_depthwise_BN (BatchNor (None, 2, 2, 384)    1536        block_10_depthwise[0][0]          __________________________________________________________________________________________________ block_10_depthwise_relu (ReLU)  (None, 2, 2, 384)    0           block_10_depthwise_BN[0][0]       __________________________________________________________________________________________________ block_10_project (Conv2D)       (None, 2, 2, 96)     36864       block_10_depthwise_relu[0][0]     __________________________________________________________________________________________________ block_10_project_BN (BatchNorma (None, 2, 2, 96)     384         block_10_project[0][0]            __________________________________________________________________________________________________ block_11_expand (Conv2D)        (None, 2, 2, 576)    55296       block_10_project_BN[0][0]         __________________________________________________________________________________________________ block_11_expand_BN (BatchNormal (None, 2, 2, 576)    2304        block_11_expand[0][0]             __________________________________________________________________________________________________ block_11_expand_relu (ReLU)     (None, 2, 2, 576)    0           block_11_expand_BN[0][0]          __________________________________________________________________________________________________ block_11_depthwise (DepthwiseCo (None, 2, 2, 576)    5184        block_11_expand_relu[0][0]        __________________________________________________________________________________________________ block_11_depthwise_BN (BatchNor (None, 2, 2, 576)    2304        block_11_depthwise[0][0]          __________________________________________________________________________________________________ block_11_depthwise_relu (ReLU)  (None, 2, 2, 576)    0           block_11_depthwise_BN[0][0]       __________________________________________________________________________________________________ block_11_project (Conv2D)       (None, 2, 2, 96)     55296       block_11_depthwise_relu[0][0]     __________________________________________________________________________________________________ block_11_project_BN (BatchNorma (None, 2, 2, 96)     384         block_11_project[0][0]            __________________________________________________________________________________________________ block_11_add (Add)              (None, 2, 2, 96)     0           block_10_project_BN[0][0]                                                                          block_11_project_BN[0][0]         __________________________________________________________________________________________________ block_12_expand (Conv2D)        (None, 2, 2, 576)    55296       block_11_add[0][0]                __________________________________________________________________________________________________ block_12_expand_BN (BatchNormal (None, 2, 2, 576)    2304        block_12_expand[0][0]             __________________________________________________________________________________________________ block_12_expand_relu (ReLU)     (None, 2, 2, 576)    0           block_12_expand_BN[0][0]          __________________________________________________________________________________________________ block_12_depthwise (DepthwiseCo (None, 2, 2, 576)    5184        block_12_expand_relu[0][0]        __________________________________________________________________________________________________ block_12_depthwise_BN (BatchNor (None, 2, 2, 576)    2304        block_12_depthwise[0][0]          __________________________________________________________________________________________________ block_12_depthwise_relu (ReLU)  (None, 2, 2, 576)    0           block_12_depthwise_BN[0][0]       __________________________________________________________________________________________________ block_12_project (Conv2D)       (None, 2, 2, 96)     55296       block_12_depthwise_relu[0][0]     __________________________________________________________________________________________________ block_12_project_BN (BatchNorma (None, 2, 2, 96)     384         block_12_project[0][0]            __________________________________________________________________________________________________ block_12_add (Add)              (None, 2, 2, 96)     0           block_11_add[0][0]                                                                                 block_12_project_BN[0][0]         __________________________________________________________________________________________________ block_13_expand (Conv2D)        (None, 2, 2, 576)    55296       block_12_add[0][0]                __________________________________________________________________________________________________ block_13_expand_BN (BatchNormal (None, 2, 2, 576)    2304        block_13_expand[0][0]             __________________________________________________________________________________________________ block_13_expand_relu (ReLU)     (None, 2, 2, 576)    0           block_13_expand_BN[0][0]          __________________________________________________________________________________________________ block_13_pad (ZeroPadding2D)    (None, 3, 3, 576)    0           block_13_expand_relu[0][0]        __________________________________________________________________________________________________ block_13_depthwise (DepthwiseCo (None, 1, 1, 576)    5184        block_13_pad[0][0]                __________________________________________________________________________________________________ block_13_depthwise_BN (BatchNor (None, 1, 1, 576)    2304        block_13_depthwise[0][0]          __________________________________________________________________________________________________ block_13_depthwise_relu (ReLU)  (None, 1, 1, 576)    0           block_13_depthwise_BN[0][0]       __________________________________________________________________________________________________ block_13_project (Conv2D)       (None, 1, 1, 160)    92160       block_13_depthwise_relu[0][0]     __________________________________________________________________________________________________ block_13_project_BN (BatchNorma (None, 1, 1, 160)    640         block_13_project[0][0]            __________________________________________________________________________________________________ block_14_expand (Conv2D)        (None, 1, 1, 960)    153600      block_13_project_BN[0][0]         __________________________________________________________________________________________________ block_14_expand_BN (BatchNormal (None, 1, 1, 960)    3840        block_14_expand[0][0]             __________________________________________________________________________________________________ block_14_expand_relu (ReLU)     (None, 1, 1, 960)    0           block_14_expand_BN[0][0]          __________________________________________________________________________________________________ block_14_depthwise (DepthwiseCo (None, 1, 1, 960)    8640        block_14_expand_relu[0][0]        __________________________________________________________________________________________________ block_14_depthwise_BN (BatchNor (None, 1, 1, 960)    3840        block_14_depthwise[0][0]          __________________________________________________________________________________________________ block_14_depthwise_relu (ReLU)  (None, 1, 1, 960)    0           block_14_depthwise_BN[0][0]       __________________________________________________________________________________________________ block_14_project (Conv2D)       (None, 1, 1, 160)    153600      block_14_depthwise_relu[0][0]     __________________________________________________________________________________________________ block_14_project_BN (BatchNorma (None, 1, 1, 160)    640         block_14_project[0][0]            __________________________________________________________________________________________________ block_14_add (Add)              (None, 1, 1, 160)    0           block_13_project_BN[0][0]                                                                          block_14_project_BN[0][0]         __________________________________________________________________________________________________ block_15_expand (Conv2D)        (None, 1, 1, 960)    153600      block_14_add[0][0]                __________________________________________________________________________________________________ block_15_expand_BN (BatchNormal (None, 1, 1, 960)    3840        block_15_expand[0][0]             __________________________________________________________________________________________________ block_15_expand_relu (ReLU)     (None, 1, 1, 960)    0           block_15_expand_BN[0][0]          __________________________________________________________________________________________________ block_15_depthwise (DepthwiseCo (None, 1, 1, 960)    8640        block_15_expand_relu[0][0]        __________________________________________________________________________________________________ block_15_depthwise_BN (BatchNor (None, 1, 1, 960)    3840        block_15_depthwise[0][0]          __________________________________________________________________________________________________ block_15_depthwise_relu (ReLU)  (None, 1, 1, 960)    0           block_15_depthwise_BN[0][0]       __________________________________________________________________________________________________ block_15_project (Conv2D)       (None, 1, 1, 160)    153600      block_15_depthwise_relu[0][0]     __________________________________________________________________________________________________ block_15_project_BN (BatchNorma (None, 1, 1, 160)    640         block_15_project[0][0]            __________________________________________________________________________________________________ block_15_add (Add)              (None, 1, 1, 160)    0           block_14_add[0][0]                                                                                 block_15_project_BN[0][0]         __________________________________________________________________________________________________ block_16_expand (Conv2D)        (None, 1, 1, 960)    153600      block_15_add[0][0]                __________________________________________________________________________________________________ block_16_expand_BN (BatchNormal (None, 1, 1, 960)    3840        block_16_expand[0][0]             __________________________________________________________________________________________________ block_16_expand_relu (ReLU)     (None, 1, 1, 960)    0           block_16_expand_BN[0][0]          __________________________________________________________________________________________________ block_16_depthwise (DepthwiseCo (None, 1, 1, 960)    8640        block_16_expand_relu[0][0]        __________________________________________________________________________________________________ block_16_depthwise_BN (BatchNor (None, 1, 1, 960)    3840        block_16_depthwise[0][0]          __________________________________________________________________________________________________ block_16_depthwise_relu (ReLU)  (None, 1, 1, 960)    0           block_16_depthwise_BN[0][0]       __________________________________________________________________________________________________ block_16_project (Conv2D)       (None, 1, 1, 320)    307200      block_16_depthwise_relu[0][0]     __________________________________________________________________________________________________ block_16_project_BN (BatchNorma (None, 1, 1, 320)    1280        block_16_project[0][0]            __________________________________________________________________________________________________ Conv_1 (Conv2D)                 (None, 1, 1, 1280)   409600      block_16_project_BN[0][0]         __________________________________________________________________________________________________ Conv_1_bn (BatchNormalization)  (None, 1, 1, 1280)   5120        Conv_1[0][0]                      __________________________________________________________________________________________________ out_relu (ReLU)                 (None, 1, 1, 1280)   0           Conv_1_bn[0][0]                   __________________________________________________________________________________________________ flatten_1 (Flatten)             (None, 1280)         0           out_relu[0][0]                    __________________________________________________________________________________________________ dense_6 (Dense)                 (None, 1000)         1281000     flatten_1[0][0]                   __________________________________________________________________________________________________ dense_7 (Dense)                 (None, 800)          800800      dense_6[0][0]                     __________________________________________________________________________________________________ dense_8 (Dense)                 (None, 400)          320400      dense_7[0][0]                     __________________________________________________________________________________________________ dense_9 (Dense)                 (None, 200)          80200       dense_8[0][0]                     __________________________________________________________________________________________________ dense_10 (Dense)                (None, 100)          20100       dense_9[0][0]                     __________________________________________________________________________________________________ dense_11 (Dense)                (None, 10)           1010        dense_10[0][0]                    ================================================================================================== Total params: 4,761,494 Trainable params: 4,727,382 Non-trainable params: 34,112 __________________________________________________________________________________________________</pre><p>Now we have to compile the model which is shown below:</p><pre>base_lea
…
ry of the model which is shown below:</p><pre>Model: &quot;model_2&quot; __________________________________________________________________________________________________ Layer (type)                    Output Shape         Param #     Connected to                      ================================================================================================== input_7 (InputLayer)            [(None, 32, 32, 3)]  0                                             __________________________________________________________________________________________________ conv1_pad (ZeroPadding2D)       (None, 38, 38, 3)    0           input_7[0][0]                     __________________________________________________________________________________________________ conv1_conv (Conv2D)             (None, 16, 16, 64)   9472        conv1_pad[0][0]                   __________________________________________________________________________________________________ conv1_bn (BatchNormalization)   (None, 16, 16, 64)   256         conv1_conv[0][0]                  __________________________________________________________________________________________________ conv1_relu (Activation)         (None, 16, 16, 64)   0           conv1_bn[0][0]                    __________________________________________________________________________________________________ pool1_pad (ZeroPadding2D)       (None, 18, 18, 64)   0           conv1_relu[0][0]                  __________________________________________________________________________________________________ pool1_pool (MaxPooling2D)       (None, 8, 8, 64)     0           pool1_pad[0][0]                   __________________________________________________________________________________________________ conv2_block1_1_conv (Conv2D)    (None, 8, 8, 64)     4160        pool1_pool[0][0]                  __________________________________________________________________________________________________ conv2_block1_1_bn (BatchNormali (None, 8, 8, 64)     256         conv2_block1_1_conv[0][0]         __________________________________________________________________________________________________ conv2_block1_1_relu (Activation (None, 8, 8, 64)     0           conv2_block1_1_bn[0][0]           __________________________________________________________________________________________________ conv2_block1_2_conv (Conv2D)    (None, 8, 8, 64)     36928       conv2_block1_1_relu[0][0]         __________________________________________________________________________________________________ conv2_block1_2_bn (BatchNormali (None, 8, 8, 64)     256         conv2_block1_2_conv[0][0]         __________________________________________________________________________________________________ conv2_block1_2_relu (Activation (None, 8, 8, 64)     0           conv2_block1_2_bn[0][0]           __________________________________________________________________________________________________ conv2_block1_0_conv (Conv2D)    (None, 8, 8, 256)    16640       pool1_pool[0][0]                  __________________________________________________________________________________________________ conv2_block1_3_conv (Conv2D)    (None, 8, 8, 256)    16640       conv2_block1_2_relu[0][0]         __________________________________________________________________________________________________ conv2_block1_0_bn (BatchNormali (None, 8, 8, 256)    1024        conv2_block1_0_conv[0][0]         __________________________________________________________________________________________________ conv2_block1_3_bn (BatchNormali (None, 8, 8, 256)    1024        conv2_block1_3_conv[0][0]         __________________________________________________________________________________________________ conv2_block1_add (Add)          (None, 8, 8, 256)    0           conv2_block1_0_bn[0][0]                                                                            conv2_block1_3_bn[0][0]           __________________________________________________________________________________________________ conv2_block1_out (Activation)   (None, 8, 8, 256)    0           conv2_block1_add[0][0]            __________________________________________________________________________________________________ conv2_block2_1_conv (Conv2D)    (None, 8, 8, 64)     16448       conv2_block1_out[0][0]            __________________________________________________________________________________________________ conv2_block2_1_bn (BatchNormali (None, 8, 8, 64)     256         conv2_block2_1_conv[0][0]         __________________________________________________________________________________________________ conv2_block2_1_relu (Activation (None, 8, 8, 64)     0           conv2_block2_1_bn[0][0]           __________________________________________________________________________________________________ conv2_block2_2_conv (Conv2D)    (None, 8, 8, 64)     36928       conv2_block2_1_relu[0][0]         __________________________________________________________________________________________________ conv2_block2_2_bn (BatchNormali (None, 8, 8, 64)     256         conv2_block2_2_conv[0][0]         __________________________________________________________________________________________________ conv2_block2_2_relu (Activation (None, 8, 8, 64)     0           conv2_block2_2_bn[0][0]           __________________________________________________________________________________________________ conv2_block2_3_conv (Conv2D)    (None, 8, 8, 256)    16640       conv2_block2_2_relu[0][0]         __________________________________________________________________________________________________ conv2_block2_3_bn (BatchNormali (None, 8, 8, 256)    1024        conv2_block2_3_conv[0][0]         __________________________________________________________________________________________________ conv2_block2_add (Add)          (None, 8, 8, 256)    0           conv2_block1_out[0][0]                                                                             conv2_block2_3_bn[0][0]           __________________________________________________________________________________________________ conv2_block2_out (Activation)   (None, 8, 8, 256)    0           conv2_block2_add[0][0]            __________________________________________________________________________________________________ conv2_block3_1_conv (Conv2D)    (None, 8, 8, 64)     16448       conv2_block2_out[0][0]            __________________________________________________________________________________________________ conv2_block3_1_bn (BatchNormali (None, 8, 8, 64)     256         conv2_block3_1_conv[0][0]         __________________________________________________________________________________________________ conv2_block3_1_relu (Activation (None, 8, 8, 64)     0           conv2_block3_1_bn[0][0]           __________________________________________________________________________________________________ conv2_block3_2_conv (Conv2D)    (None, 8, 8, 64)     36928       conv2_block3_1_relu[0][0]         __________________________________________________________________________________________________ conv2_block3_2_bn (BatchNormali (None, 8, 8, 64)     256         conv2_block3_2_conv[0][0]         __________________________________________________________________________________________________ conv2_block3_2_relu (Activation (None, 8, 8, 64)     0           conv2_block3_2_bn[0][0]           __________________________________________________________________________________________________ conv2_block3_3_conv (Conv2D)    (None, 8, 8, 256)    16640       conv2_block3_2_relu[0][0]         __________________________________________________________________________________________________ conv2_block3_3_bn (BatchNormali (None, 8, 8, 256)    1024        conv2_block3_3_conv[0][0]         __________________________________________________________________________________________________ conv2_block3_add (Add)          (None, 8, 8, 256)    0           conv2_block2_out[0][0]                                                                             conv2_block3_3_bn[0][0]           __________________________________________________________________________________________________ conv2_block3_out (Activation)   (None, 8, 8, 256)    0           conv2_block3_add[0][0]            __________________________________________________________________________________________________ conv3_block1_1_conv (Conv2D)    (None, 4, 4, 128)    32896       conv2_block3_out[0][0]            __________________________________________________________________________________________________ conv3_block1_1_bn (BatchNormali (None, 4, 4, 128)    512         conv3_block1_1_conv[0][0]         __________________________________________________________________________________________________ conv3_block1_1_relu (Activation (None, 4, 4, 128)    0           conv3_block1_1_bn[0][0]           __________________________________________________________________________________________________ conv3_block1_2_conv (Conv2D)    (None, 4, 4, 128)    147584      conv3_block1_1_relu[0][0]         __________________________________________________________________________________________________ conv3_block1_2_bn (BatchNormali (None, 4, 4, 128)    512         conv3_block1_2_conv[0][0]         __________________________________________________________________________________________________ conv3_block1_2_relu (Activation (None, 4, 4, 128)    0           conv3_block1_2_bn[0][0]           __________________________________________________________________________________________________ conv3_block1_0_conv (Conv2D)    (None, 4, 4, 512)    131584      conv2_block3_out[0][0]            __________________________________________________________________________________________________ conv3_block1_3_conv (Conv2D)    (None, 4, 4, 512)    66048       conv3_block1_2_relu[0][0]         __________________________________________________________________________________________________ conv3_block1_0_bn (BatchNormali (None, 4, 4, 512)    2048        conv3_block1_0_conv[0][0]         __________________________________________________________________________________________________ conv3_block1_3_bn (BatchNormali (None, 4, 4, 512)    2048        conv3_block1_3_conv[0][0]         __________________________________________________________________________________________________ conv3_block1_add (Add)          (None, 4, 4, 512)    0           conv3_block1_0_bn[0][0]                                                                            conv3_block1_3_bn[0][0]           __________________________________________________________________________________________________ conv3_block1_out (Activation)   (None, 4, 4, 512)    0           conv3_block1_add[0][0]            __________________________________________________________________________________________________ conv3_block2_1_conv (Conv2D)    (None, 4, 4, 128)    65664       conv3_block1_out[0][0]            __________________________________________________________________________________________________ conv3_block2_1_bn (BatchNormali (None, 4, 4, 128)    512         conv3_block2_1_conv[0][0]         __________________________________________________________________________________________________ conv3_block2_1_relu (Activation (None, 4, 4, 128)    0           conv3_block2_1_bn[0][0]           __________________________________________________________________________________________________ conv3_block2_2_conv (Conv2D)    (None, 4, 4, 128)    147584      conv3_block2_1_relu[0][0]         __________________________________________________________________________________________________ conv3_block2_2_bn (BatchNormali (None, 4, 4, 128)    512         conv3_block2_2_conv[0][0]         __________________________________________________________________________________________________ conv3_block2_2_relu (Activation (None, 4, 4, 128)    0           conv3_block2_2_bn[0][0]           __________________________________________________________________________________________________ conv3_block2_3_conv (Conv2D)    (None, 4, 4, 512)    66048       conv3_block2_2_relu[0][0]         __________________________________________________________________________________________________ conv3_block2_3_bn (BatchNormali (None, 4, 4, 512)    2048        conv3_block2_3_conv[0][0]         __________________________________________________________________________________________________ conv3_block2_add (Add)          (None, 4, 4, 512)    0           conv3_block1_out[0][0]                                                                             conv3_block2_3_bn[0][0]           __________________________________________________________________________________________________ conv3_block2_out (Activation)   (None, 4, 4, 512)    0           conv3_block2_add[0][0]            __________________________________________________________________________________________________ conv3_block3_1_conv (Conv2D)    (None, 4, 4, 128)    65664       conv3_block2_out[0][0]            __________________________________________________________________________________________________ conv3_block3_1_bn (BatchNormali (None, 4, 4, 128)    512         conv3_block3_1_conv[0][0]         __________________________________________________________________________________________________ conv3_block3_1_relu (Activation (None, 4, 4, 128)    0           conv3_block3_1_bn[0][0]           __________________________________________________________________________________________________ conv3_block3_2_conv (Conv2D)    (None, 4, 4, 128)    147584      conv3_block3_1_relu[0][0]         __________________________________________________________________________________________________ conv3_block3_2_bn (BatchNormali (None, 4, 4, 128)    512         conv3_block3_2_conv[0][0]         __________________________________________________________________________________________________ conv3_block3_2_relu (Activation (None, 4, 4, 128)    0           conv3_block3_2_bn[0][0]           __________________________________________________________________________________________________ conv3_block3_3_conv (Conv2D)    (None, 4, 4, 512)    66048       conv3_block3_2_relu[0][0]         __________________________________________________________________________________________________ conv3_block3_3_bn (BatchNormali (None, 4, 4, 512)    2048        conv3_block3_3_conv[0][0]         __________________________________________________________________________________________________ conv3_block3_add (Add)          (None, 4, 4, 512)    0           conv3_block2_out[0][0]                                                                             conv3_block3_3_bn[0][0]           __________________________________________________________________________________________________ conv3_block3_out (Activation)   (None, 4, 4, 512)    0           conv3_block3_add[0][0]            __________________________________________________________________________________________________ conv3_block4_1_conv (Conv2D)    (None, 4, 4, 128)    65664       conv3_block3_out[0][0]            __________________________________________________________________________________________________ conv3_block4_1_bn (BatchNormali (None, 4, 4, 128)    512         conv3_block4_1_conv[0][0]         __________________________________________________________________________________________________ conv3_block4_1_relu (Activation (None, 4, 4, 128)    0           conv3_block4_1_bn[0][0]           __________________________________________________________________________________________________ conv3_block4_2_conv (Conv2D)    (None, 4, 4, 128)    147584      conv3_block4_1_relu[0][0]         __________________________________________________________________________________________________ conv3_block4_2_bn (BatchNormali (None, 4, 4, 128)    512         conv3_block4_2_conv[0][0]         __________________________________________________________________________________________________ conv3_block4_2_relu (Activation (None, 4, 4, 128)    0           conv3_block4_2_bn[0][0]           __________________________________________________________________________________________________ conv3_block4_3_conv (Conv2D)    (None, 4, 4, 512)    66048       conv3_block4_2_relu[0][0]         __________________________________________________________________________________________________ conv3_block4_3_bn (BatchNormali (None, 4, 4, 512)    2048        conv3_block4_3_conv[0][0]         __________________________________________________________________________________________________ conv3_block4_add (Add)          (None, 4, 4, 512)    0           conv3_block3_out[0][0]                                                                             conv3_block4_3_bn[0][0]           __________________________________________________________________________________________________ conv3_block4_out (Activation)   (None, 4, 4, 512)    0           conv3_block4_add[0][0]            __________________________________________________________________________________________________ conv4_block1_1_conv (Conv2D)    (None, 2, 2, 256)    131328      conv3_block4_out[0][0]            __________________________________________________________________________________________________ conv4_block1_1_bn (BatchNormali (None, 2, 2, 256)    1024        conv4_block1_1_conv[0][0]         __________________________________________________________________________________________________ conv4_block1_1_relu (Activation (None, 2, 2, 256)    0           conv4_block1_1_bn[0][0]           __________________________________________________________________________________________________ conv4_block1_2_conv (Conv2D)    (None, 2, 2, 256)    590080      conv4_block1_1_relu[0][0]         __________________________________________________________________________________________________ conv4_block1_2_bn (BatchNormali (None, 2, 2, 256)    1024        conv4_block1_2_conv[0][0]         __________________________________________________________________________________________________ conv4_block1_2_relu (Activation (None, 2, 2, 256)    0           conv4_block1_2_bn[0][0]           __________________________________________________________________________________________________ conv4_block1_0_conv (Conv2D)    (None, 2, 2, 1024)   525312      conv3_block4_out[0][0]            __________________________________________________________________________________________________ conv4_block1_3_conv (Conv2D)    (None, 2, 2, 1024)   263168      conv4_block1_2_relu[0][0]         __________________________________________________________________________________________________ conv4_block1_0_bn (BatchNormali (None, 2, 2, 1024)   4096        conv4_block1_0_conv[0][0]         __________________________________________________________________________________________________ conv4_block1_3_bn (BatchNormali (None, 2, 2, 1024)   4096        conv4_block1_3_conv[0][0]         __________________________________________________________________________________________________ conv4_block1_add (Add)          (None, 2, 2, 1024)   0           conv4_block1_0_bn[0][0]                                                                            conv4_block1_3_bn[0][0]           __________________________________________________________________________________________________ conv4_block1_out (Activation)   (None, 2, 2, 1024)   0           conv4_block1_add[0][0]            __________________________________________________________________________________________________ conv4_block2_1_conv (Conv2D)    (None, 2, 2, 256)    262400      conv4_block1_out[0][0]            __________________________________________________________________________________________________ conv4_block2_1_bn (BatchNormali (None, 2, 2, 256)    1024        conv4_block2_1_conv[0][0]         __________________________________________________________________________________________________ conv4_block2_1_relu (Activation (None, 2, 2, 256)    0           conv4_block2_1_bn[0][0]           __________________________________________________________________________________________________ conv4_block2_2_conv (Conv2D)    (None, 2, 2, 256)    590080      conv4_block2_1_relu[0][0]         __________________________________________________________________________________________________ conv4_block2_2_bn (BatchNormali (None, 2, 2, 256)    1024        conv4_block2_2_conv[0][0]         __________________________________________________________________________________________________ conv4_block2_2_relu (Activation (None, 2, 2, 256)    0           conv4_block2_2_bn[0][0]           __________________________________________________________________________________________________ conv4_block2_3_conv (Conv2D)    (None, 2, 2, 1024)   263168      conv4_block2_2_relu[0][0]         __________________________________________________________________________________________________ conv4_block2_3_bn (BatchNormali (None, 2, 2, 1024)   4096        conv4_block2_3_conv[0][0]         __________________________________________________________________________________________________ conv4_block2_add (Add)          (None, 2, 2, 1024)   0           conv4_block1_out[0][0]                                                                             conv4_block2_3_bn[0][0]           __________________________________________________________________________________________________ conv4_block2_out (Activation)   (None, 2, 2, 1024)   0           conv4_block2_add[0][0]            __________________________________________________________________________________________________ conv4_block3_1_conv (Conv2D)    (None, 2, 2, 256)    262400      conv4_block2_out[0][0]            __________________________________________________________________________________________________ conv4_block3_1_bn (BatchNormali (None, 2, 2, 256)    1024        conv4_block3_1_conv[0][0]         __________________________________________________________________________________________________ conv4_block3_1_relu (Activation (None, 2, 2, 256)    0           conv4_block3_1_bn[0][0]           __________________________________________________________________________________________________ conv4_block3_2_conv (Conv2D)    (None, 2, 2, 256)    590080      conv4_block3_1_relu[0][0]         __________________________________________________________________________________________________ conv4_block3_2_bn (BatchNormali (None, 2, 2, 256)    1024        conv4_block3_2_conv[0][0]         __________________________________________________________________________________________________ conv4_block3_2_relu (Activation (None, 2, 2, 256)    0           conv4_block3_2_bn[0][0]           __________________________________________________________________________________________________ conv4_block3_3_conv (Conv2D)    (None, 2, 2, 1024)   263168      conv4_block3_2_relu[0][0]         __________________________________________________________________________________________________ conv4_block3_3_bn (BatchNormali (None, 2, 2, 1024)   4096        conv4_block3_3_conv[0][0]         __________________________________________________________________________________________________ conv4_block3_add (Add)          (None, 2, 2, 1024)   0           conv4_block2_out[0][0]                                                                             conv4_block3_3_bn[0][0]           __________________________________________________________________________________________________ conv4_block3_out (Activation)   (None, 2, 2, 1024)   0           conv4_block3_add[0][0]            __________________________________________________________________________________________________ conv4_block4_1_conv (Conv2D)    (None, 2, 2, 256)    262400      conv4_block3_out[0][0]            __________________________________________________________________________________________________ conv4_block4_1_bn (BatchNormali (None, 2, 2, 256)    1024        conv4_block4_1_conv[0][0]         __________________________________________________________________________________________________ conv4_block4_1_relu (Activation (None, 2, 2, 256)    0           conv4_block4_1_bn[0][0]           __________________________________________________________________________________________________ conv4_block4_2_conv (Conv2D)    (None, 2, 2, 256)    590080      conv4_block4_1_relu[0][0]         __________________________________________________________________________________________________ conv4_block4_2_bn (BatchNormali (None, 2, 2, 256)    1024        conv4_block4_2_conv[0][0]         __________________________________________________________________________________________________ conv4_block4_2_relu (Activation (None, 2, 2, 256)    0           conv4_block4_2_bn[0][0]           __________________________________________________________________________________________________ conv4_block4_3_conv (Conv2D)    (None, 2, 2, 1024)   263168      conv4_block4_2_relu[0][0]         __________________________________________________________________________________________________ conv4_block4_3_bn (BatchNormali (None, 2, 2, 1024)   4096        conv4_block4_3_conv[0][0]         __________________________________________________________________________________________________ conv4_block4_add (Add)          (None, 2, 2, 1024)   0           conv4_block3_out[0][0]                                                                             conv4_block4_3_bn[0][0]           __________________________________________________________________________________________________ conv4_block4_out (Activation)   (None, 2, 2, 1024)   0           conv4_block4_add[0][0]            __________________________________________________________________________________________________ conv4_block5_1_conv (Conv2D)    (None, 2, 2, 256)    262400      conv4_block4_out[0][0]            __________________________________________________________________________________________________ conv4_block5_1_bn (BatchNormali (None, 2, 2, 256)    1024        conv4_block5_1_conv[0][0]         __________________________________________________________________________________________________ conv4_block5_1_relu (Activation (None, 2, 2, 256)    0           conv4_block5_1_bn[0][0]           __________________________________________________________________________________________________ conv4_block5_2_conv (Conv2D)    (None, 2, 2, 256)    590080      conv4_block5_1_relu[0][0]         __________________________________________________________________________________________________ conv4_block5_2_bn (BatchNormali (None, 2, 2, 256)    1024        conv4_block5_2_conv[0][0]         __________________________________________________________________________________________________ conv4_block5_2_relu (Activation (None, 2, 2, 256)    0           conv4_block5_2_bn[0][0]           __________________________________________________________________________________________________ conv4_block5_3_conv (Conv2D)    (None, 2, 2, 1024)   263168      conv4_block5_2_relu[0][0]         __________________________________________________________________________________________________ conv4_block5_3_bn (BatchNormali (None, 2, 2, 1024)   4096        conv4_block5_3_conv[0][0]         __________________________________________________________________________________________________ conv4_block5_add (Add)          (None, 2, 2, 1024)   0           conv4_block4_out[0][0]                                                                             conv4_block5_3_bn[0][0]           __________________________________________________________________________________________________ conv4_block5_out (Activation)   (None, 2, 2, 1024)   0           conv4_block5_add[0][0]            __________________________________________________________________________________________________ conv4_block6_1_conv (Conv2D)    (None, 2, 2, 256)    262400      conv4_block5_out[0][0]            __________________________________________________________________________________________________ conv4_block6_1_bn (BatchNormali (None, 2, 2, 256)    1024        conv4_block6_1_conv[0][0]         __________________________________________________________________________________________________ conv4_block6_1_relu (Activation (None, 2, 2, 256)    0           conv4_block6_1_bn[0][0]           __________________________________________________________________________________________________ conv4_block6_2_conv (Conv2D)    (None, 2, 2, 256)    590080      conv4_block6_1_relu[0][0]         __________________________________________________________________________________________________ conv4_block6_2_bn (BatchNormali (None, 2, 2, 256)    1024        conv4_block6_2_conv[0][0]         __________________________________________________________________________________________________ conv4_block6_2_relu (Activation (None, 2, 2, 256)    0           conv4_block6_2_bn[0][0]           __________________________________________________________________________________________________ conv4_block6_3_conv (Conv2D)    (None, 2, 2, 1024)   263168      conv4_block6_2_relu[0][0]         __________________________________________________________________________________________________ conv4_block6_3_bn (BatchNormali (None, 2, 2, 1024)   4096        conv4_block6_3_conv[0][0]         __________________________________________________________________________________________________ conv4_block6_add (Add)          (None, 2, 2, 1024)   0           conv4_block5_out[0][0]                                                                             conv4_block6_3_bn[0][0]           __________________________________________________________________________________________________ conv4_block6_out (Activation)   (None, 2, 2, 1024)   0           conv4_block6_add[0][0]            __________________________________________________________________________________________________ conv5_block1_1_conv (Conv2D)    (None, 1, 1, 512)    524800      conv4_block6_out[0][0]            __________________________________________________________________________________________________ conv5_block1_1_bn (BatchNormali (None, 1, 1, 512)    2048        conv5_block1_1_conv[0][0]         __________________________________________________________________________________________________ conv5_block1_1_relu (Activation (None, 1, 1, 512)    0           conv5_block1_1_bn[0][0]           __________________________________________________________________________________________________ conv5_block1_2_conv (Conv2D)    (None, 1, 1, 512)    2359808     conv5_block1_1_relu[0][0]         __________________________________________________________________________________________________ conv5_block1_2_bn (BatchNormali (None, 1, 1, 512)    2048        conv5_block1_2_conv[0][0]         __________________________________________________________________________________________________ conv5_block1_2_relu (Activation (None, 1, 1, 512)    0           conv5_block1_2_bn[0][0]           __________________________________________________________________________________________________ conv5_block1_0_conv (Conv2D)    (None, 1, 1, 2048)   2099200     conv4_block6_out[0][0]            __________________________________________________________________________________________________ conv5_block1_3_conv (Conv2D)    (None, 1, 1, 2048)   1050624     conv5_block1_2_relu[0][0]         __________________________________________________________________________________________________ conv5_block1_0_bn (BatchNormali (None, 1, 1, 2048)   8192        conv5_block1_0_conv[0][0]         __________________________________________________________________________________________________ conv5_block1_3_bn (BatchNormali (None, 1, 1, 2048)   8192        conv5_block1_3_conv[0][0]         __________________________________________________________________________________________________ conv5_block1_add (Add)          (None, 1, 1, 2048)   0           conv5_block1_0_bn[0][0]                                                                            conv5_block1_3_bn[0][0]           __________________________________________________________________________________________________ conv5_block1_out (Activation)   (None, 1, 1, 2048)   0           conv5_block1_add[0][0]            __________________________________________________________________________________________________ conv5_block2_1_conv (Conv2D)    (None, 1, 1, 512)    1049088     conv5_block1_out[0][0]            __________________________________________________________________________________________________ conv5_block2_1_bn (BatchNormali (None, 1, 1, 512)    2048        conv5_block2_1_conv[0][0]         __________________________________________________________________________________________________ conv5_block2_1_relu (Activation (None, 1, 1, 512)    0           conv5_block2_1_bn[0][0]           __________________________________________________________________________________________________ conv5_block2_2_conv (Conv2D)    (None, 1, 1, 512)    2359808     conv5_block2_1_relu[0][0]         __________________________________________________________________________________________________ conv5_block2_2_bn (BatchNormali (None, 1, 1, 512)    2048        conv5_block2_2_conv[0][0]         __________________________________________________________________________________________________ conv5_block2_2_relu (Activation (None, 1, 1, 512)    0           conv5_block2_2_bn[0][0]           __________________________________________________________________________________________________ conv5_block2_3_conv (Conv2D)    (None, 1, 1, 2048)   1050624     conv5_block2_2_relu[0][0]         __________________________________________________________________________________________________ conv5_block2_3_bn (BatchNormali (None, 1, 1, 2048)   8192        conv5_block2_3_conv[0][0]         __________________________________________________________________________________________________ conv5_block2_add (Add)          (None, 1, 1, 2048)   0           conv5_block1_out[0][0]                                                                             conv5_block2_3_bn[0][0]           __________________________________________________________________________________________________ conv5_block2_out (Activation)   (None, 1, 1, 2048)   0           conv5_block2_add[0][0]            __________________________________________________________________________________________________ conv5_block3_1_conv (Conv2D)    (None, 1, 1, 512)    1049088     conv5_block2_out[0][0]            __________________________________________________________________________________________________ conv5_block3_1_bn (BatchNormali (None, 1, 1, 512)    2048        conv5_block3_1_conv[0][0]         __________________________________________________________________________________________________ conv5_block3_1_relu (Activation (None, 1, 1, 512)    0           conv5_block3_1_bn[0][0]           __________________________________________________________________________________________________ conv5_block3_2_conv (Conv2D)    (None, 1, 1, 512)    2359808     conv5_block3_1_relu[0][0]         __________________________________________________________________________________________________ conv5_block3_2_bn (BatchNormali (None, 1, 1, 512)    2048        conv5_block3_2_conv[0][0]         __________________________________________________________________________________________________ conv5_block3_2_relu (Activation (None, 1, 1, 512)    0           conv5_block3_2_bn[0][0]           __________________________________________________________________________________________________ conv5_block3_3_conv (Conv2D)    (None, 1, 1, 2048)   1050624     conv5_block3_2_relu[0][0]         __________________________________________________________________________________________________ conv5_block3_3_bn (BatchNormali (None, 1, 1, 2048)   8192        conv5_block3_3_conv[0][0]         __________________________________________________________________________________________________ conv5_block3_add (Add)          (None, 1, 1, 2048)   0           conv5_block2_out[0][0]                                                                             conv5_block3_3_bn[0][0]           __________________________________________________________________________________________________ conv5_block3_out (Activation)   (None, 1, 1, 2048)   0           conv5_block3_add[0][0]            __________________________________________________________________________________________________ flatten_2 (Flatten)             (None, 2048)         0           conv5_block3_out[0][0]            __________________________________________________________________________________________________ dense_12 (Dense)                (None, 1000)         2049000     flatten_2[0][0]                   __________________________________________________________________________________________________ dense_13 (Dense)                (None, 800)          800800      dense_12[0][0]                    __________________________________________________________________________________________________ dense_14 (Dense)                (None, 400)          320400      dense_13[0][0]                    __________________________________________________________________________________________________ dense_15 (Dense)                (None, 200)          80200       dense_14[0][0]                    __________________________________________________________________________________________________ dense_16 (Dense)                (None, 100)          20100       dense_15[0][0]                    __________________________________________________________________________________________________ dense_17 (Dense)                (None, 10)           1010        dense_16[0][0]                    ================================================================================================== Total params: 26,859,222 Trainable params: 26,806,102 Non-trainable params: 53,120 ________________________________________________________________________________________________</pre><p>Now we have to compile the model which is shown below:</p><pre>base_lea
…
unctional.py:718: UserWarning: Named tensors and all their associated APIs are an experimental feature and subject to change. Please do not use them for anything important until they are released as stable. (Triggered internally at  /pytorch/c10/core/TensorImpl.h:1156.)<br>  return torch.max_pool2d(input, kernel_size, stride, padding, dilation, ceil_mode)</pre><pre>----------------------------------------------------------------<br>        Layer (type)               Output Shape         Param #<br>================================================================<br>            Conv2d-1         [-1, 64, 112, 112]           9,408<br>       BatchNorm2d-2         [-1, 64, 112, 112]             128<br>              ReLU-3         [-1, 64, 112, 112]               0<br>         MaxPool2d-4           [-1, 64, 56, 56]               0<br>            Conv2d-5           [-1, 64, 56, 56]           4,096<br>       BatchNorm2d-6           [-1, 64, 56, 56]             128<br>              ReLU-7           [-1, 64, 56, 56]               0<br>            Conv2d-8           [-1, 64, 56, 56]          36,864<br>       BatchNorm2d-9           [-1, 64, 56, 56]             128<br>             ReLU-10           [-1, 64, 56, 56]               0<br>           Conv2d-11          [-1, 256, 56, 56]          16,384<br>      BatchNorm2d-12          [-1, 256, 56, 56]             512<br>           Conv2d-13          [-1, 256, 56, 56]          16,384<br>      BatchNorm2d-14          [-1, 256, 56, 56]             512<br>             ReLU-15          [-1, 256, 56, 56]               0<br>       Bottleneck-16          [-1, 256, 56, 56]               0<br>           Conv2d-17           [-1, 64, 56, 56]          16,384<br>      BatchNorm2d-18           [-1, 64, 56, 56]             128<br>             ReLU-19           [-1, 64, 56, 56]               0<br>           Conv2d-20           [-1, 64, 56, 56]          36,864<br>      BatchNorm2d-21           [-1, 64, 56, 56]             128<br>             ReLU-22           [-1, 64, 56, 56]               0<br>           Conv2d-23          [-1, 256, 56, 56]          16,384<br>      BatchNorm2d-24          [-1, 256, 56, 56]             512<br>             ReLU-25          [-1, 256, 56,…
_________________________________________________________________________________________________ conv4_block1_add (Add)          (None, 2, 2, 1024)   0           conv4_block1_0_bn[0][0]                                                                            conv4_block1_3_bn[0][0]           __________________________________________________________________________________________________ conv4_block1_out (Activation)   (None, 2, 2, 1024)   0           conv4_block1_add[0][0]            __________________________________________________________________________________________________ conv4_block2_1_conv (Conv2D)    (None, 2, 2, 256)    262400      conv4_block1_out[0][0]            __________________________________________________________________________________________________ conv4_block2_1_bn (BatchNormali (None, 2, 2, 256)    1024        conv4_block2_1_conv[0][0]         __________________________________________________________________________________________________ conv4_block2_1_relu (Activation (None, 2, 2, 256)    0           conv4_block2_1_bn[0][0]           __________________________________________________________________________________________________ conv4_block2_2_conv (Conv2D)    (None, 2, 2, 256)    590080      conv4_block2_1_relu[0][0]         __________________________________________________________________________________________________ conv4_block2_2_bn (BatchNormali (None, 2, 2, 256)    1024        conv4_block2_2_conv[0][0]         __________________________________________________________________________________________________ conv4_block2_2_relu (Activation (None, 2, 2, 256)    0           conv4_block2_2_bn[0][0]           __________________________________________________________________________________________________ conv4_block2_3_conv (Conv2D)    (None, 2, 2, 1024)   263168      conv4_block2_2_relu[0][0]         __________________________________________________________________________________________________ conv4_block2_3_bn (BatchNormali (None, 2, 2, 1024)   4096        conv4_block2_3_conv[0][0]         __________________________________________________________________________________________________ conv4_block2_add (Add)          (None, 2, 2, 1024)   0           conv4_block1_out[0][0]                                                                             conv4_block2_3_bn[0][0]           __________________________________________________________________________________________________ conv4_block2_out (Activation)   (None, 2, 2, 1024)   0           conv4_block2_add[0][0]            __________________________________________________________________________________________________ conv4_block3_1_conv (Conv2D)    (None, 2, 2, 256)    262400      conv4_block2_out[0][0]            __________________________________________________________________________________________________ conv4_block3_1_bn (BatchNormali (None, 2, 2, 256)    1024        conv4_block3_1_conv[0][0]         __________________________________________________________________________________________________ conv4_block3_1_relu (Activation (None, 2, 2, 256)    0           conv4_block3_1_bn[0][0]           __________________________________________________________________________________________________ conv4_block3_2_conv (Conv2D)    (None, 2, 2, 256)    590080      conv4_block3_1_relu[0][0]         __________________________________________________________________________________________________ conv4_block3_2_bn (BatchNormali (None, 2, 2, 256)    1024        conv4_block3_2_conv[0][0]         __________________________________________________________________________________________________ conv4_block3_2_relu (Activation (None, 2, 2, 256)    0           conv4_block3_2_bn[0][0]           __________________________________________________________________________________________________ conv4_block3_3_conv (Conv2D)    (None, 2, 2, 1024)   263168      conv4_block3_2_relu[0][0]         __________________________________________________________________________________________________ conv4_block3_3_bn (BatchNormali (None, 2, 2, 1024)   4096        conv4_block3_3_conv[0][0]         __________________________________________________________________________________________________ conv4_block3_add (Add)          (None, 2, 2, 1024)   0           conv4_block2_out[0][0]                                                                             conv4_block3_3_bn[0][0]           __________________________________________________________________________________________________ conv4_block3_out (Activation)   (None, 2, 2, 1024)   0           conv4_block3_add[0][0]            __________________________________________________________________________________________________ conv4_block4_1_conv (Conv2D)    (None, 2, 2, 256)    262400      conv4_block3_out[0][0]            __________________________________________________________________________________________________ conv4_block4_1_bn (BatchNormali (None, 2, 2, 256)    1024        conv4_block4_1_conv[0][0]         __________________________________________________________________________________________________ conv4_block4_1_relu (Activation (None, 2, 2, 256)    0           conv4_block4_1_bn[0][0]           __________________________________________________________________________________________________ conv4_block4_2_conv (Conv2D)    (None, 2, 2, 256)    590080      conv4_block4_1_relu[0][0]         __________________________________________________________________________________________________ conv4_block4_2_bn (BatchNormali (None, 2, 2, 256)    1024        conv4_block4_2_conv[0][0]         __________________________________________________________________________________________________ conv4_block4_2_relu (Activation (None, 2, 2, 256)    0           conv4_block4_2_bn[0][0]           __________________________________________________________________________________________________ conv4_block4_3_conv (Conv2D)    (None, 2, 2, 1024)   263168      conv4_block4_2_relu[0][0]         __________________________________________________________________________________________________ conv4_block4_3_bn (BatchNormali (None, 2, 2, 1024)   4096        conv4_block4_3_conv[0][0]         __________________________________________________________________________________________________ conv4_block4_add (Add)          (None, 2, 2, 1024)   0           conv4_block3_out[0][0]                                                                             conv4_block4_3_bn[0][0]           __________________________________________________________________________________________________ conv4_block4_out (Activation)   (None, 2, 2, 1024)   0           conv4_block4_add[0][0]            __________________________________________________________________________________________________ conv4_block5_1_conv (Conv2D)    (None, 2, 2, 256)    262400      conv4_block4_out[0][0]            __________________________________________________________________________________________________ conv4_block5_1_bn (BatchNormali (None, 2, 2, 256)    1024        conv4_block5_1_conv[0][0]         __________________________________________________________________________________________________ conv4_block5_1_relu (Activation (None, 2, 2, 256)    0           conv4_block5_1_bn[0][0]           __________________________________________________________________________________________________ conv4_block5_2_conv (Conv2D)    (None, 2, 2, 256)    590080      conv4_block5_1_relu[0][0]         __________________________________________________________________________________________________ conv4_block5_2_bn (BatchNormali (None, 2, 2, 256)    1024        conv4_block5_2_conv[0][0]         __________________________________________________________________________________________________ conv4_block5_2_relu (Activation (None, 2, 2, 256)    0           conv4_block5_2_bn[0][0]           __________________________________________________________________________________________________ conv4_block5_3_conv (Conv2D)    (None, 2, 2, 1024)   263168      conv4_block5_2_relu[0][0]         __________________________________________________________________________________________________ conv4_block5_3_bn (BatchNormali (None, 2, 2, 1024)   4096        conv4_block5_3_conv[0][0]         __________________________________________________________________________________________________ conv4_block5_add (Add)          (None, 2, 2, 1024)   0           conv4_block4_out[0][0]                                                                             conv4_block5_3_bn[0][0]           __________________________________________________________________________________________________ conv4_block5_out (Activation)   (None, 2, 2, 1024)   0           conv4_block5_add[0][0]            __________________________________________________________________________________________________ conv4_block6_1_conv (Conv2D)    (None, 2, 2, 256)    262400      conv4_block5_out[0][0]            __________________________________________________________________________________________________ conv4_block6_1_bn (BatchNormali (None, 2, 2, 256)    1024        conv4_block6_1_conv[0][0]         __________________________________________________________________________________________________ conv4_block6_1_relu (Activation (None, 2, 2, 256)    0           conv4_block6_1_bn[0][0]           __________________________________________________________________________________________________ conv4_block6_2_conv (Conv2D)    (None, 2, 2, 256)    590080      conv4_block6_1_relu[0][0]         __________________________________________________________________________________________________ conv4_block6_2_bn (BatchNormali (None, 2, 2, 256)    1024        conv4_block6_2_conv[0][0]         __________________________________________________________________________________________________ conv4_block6_2_relu (Activation (None, 2, 2, 256)    0           conv4_block6_2_bn[0][0]           __________________________________________________________________________________________________ conv4_block6_3_conv (Conv2D)    (None, 2, 2, 1024)   263168      conv4_block6_2_relu[0][0]         __________________________________________________________________________________________________ conv4_block6_3_bn (BatchNormali (None, 2, 2, 1024)   4096        conv4_block6_3_conv[0][0]         __________________________________________________________________________________________________ conv4_block6_add (Add)          (None, 2, 2, 1024)   0           conv4_block5_out[0][0]                                                                             conv4_block6_3_bn[0][0]           __________________________________________________________________________________________________ conv4_block6_out (Activation)   (None, 2, 2, 1024)   0           conv4_block6_add[0][0]            __________________________________________________________________________________________________ conv5_block1_1_conv (Conv2D)    (None, 1, 1, 512)    524800      conv4_block6_out[0][0]            __________________________________________________________________________________________________ conv5_block1_1_bn (BatchNormali (None, 1, 1, 512)    2048        conv5_block1_1_conv[0][0]         __________________________________________________________________________________________________ conv5_block1_1_relu (Activation (None, 1, 1, 512)    0           conv5_block1_1_bn[0][0]           __________________________________________________________________________________________________ conv5_block1_2_conv (Conv2D)    (None, 1, 1, 512)    2359808     conv5_block1_1_relu[0][0]         __________________________________________________________________________________________________ conv5_block1_2_bn (BatchNormali (None, 1, 1, 512)    2048        conv5_block1_2_conv[0][0]         __________________________________________________________________________________________________ conv5_block1_2_relu (Activation (None, 1, 1, 512)    0           conv5_block1_2_bn[0][0]           __________________________________________________________________________________________________ conv5_block1_0_conv (Conv2D)    (None, 1, 1, 2048)   2099200     conv4_block6_out[0][0]            __________________________________________________________________________________________________ conv5_block1_3_conv (Conv2D)    (None, 1, 1, 2048)   1050624     conv5_block1_2_relu[0][0]         __________________________________________________________________________________________________ conv5_block1_0_bn (BatchNormali (None, 1, 1, 2048)   8192        conv5_block1_0_conv[0][0]         __________________________________________________________________________________________________ conv5_block1_3_bn (BatchNormali (None, 1, 1, 2048)   8192        conv5_block1_3_conv[0][0]         __________________________________________________________________________________________________ conv5_block1_add (Add)          (None, 1, 1, 2048)   0           conv5_block1_0_bn[0][0]                                                                            conv5_block1_3_bn[0][0]           __________________________________________________________________________________________________ conv5_block1_out (Activation)   (None, 1, 1, 2048)   0           conv5_block1_add[0][0]            __________________________________________________________________________________________________ conv5_block2_1_conv (Conv2D)    (None, 1, 1, 512)    1049088     conv5_block1_out[0][0]            __________________________________________________________________________________________________ conv5_block2_1_bn (BatchNormali (None, 1, 1, 512)    2048        conv5_block2_1_conv[0][0]         __________________________________________________________________________________________________ conv5_block2_1_relu (Activation (None, 1, 1, 512)    0           conv5_block2_1_bn[0][0]           __________________________________________________________________________________________________ conv5_block2_2_conv (Conv2D)    (None, 1, 1, 512)    2359808     conv5_block2_1_relu[0][0]         __________________________________________________________________________________________________ conv5_block2_2_bn (BatchNormali (None, 1, 1, 512)    2048        conv5_block2_2_conv[0][0]         __________________________________________________________________________________________________ conv5_block2_2_relu (Activation (None, 1, 1, 512)    0           conv5_block2_2_bn[0][0]           __________________________________________________________________________________________________ conv5_block2_3_conv (Conv2D)    (None, 1, 1, 2048)   1050624     conv5_block2_2_relu[0][0]         __________________________________________________________________________________________________ conv5_block2_3_bn (BatchNormali (None, 1, 1, 2048)   8192        conv5_block2_3_conv[0][0]         __________________________________________________________________________________________________ conv5_block2_add (Add)          (None, 1, 1, 2048)   0           conv5_block1_out[0][0]                                                                             conv5_block2_3_bn[0][0]           __________________________________________________________________________________________________ conv5_block2_out (Activation)   (None, 1, 1, 2048)   0           conv5_block2_add[0][0]            __________________________________________________________________________________________________ conv5_block3_1_conv (Conv2D)    (None, 1, 1, 512)    1049088     conv5_block2_out[0][0]            __________________________________________________________________________________________________ conv5_block3_1_bn (BatchNormali (None, 1, 1, 512)    2048        conv5_block3_1_conv[0][0]         __________________________________________________________________________________________________ conv5_block3_1_relu (Activation (None, 1, 1, 512)    0           conv5_block3_1_bn[0][0]           __________________________________________________________________________________________________ conv5_block3_2_conv (Conv2D)    (None, 1, 1, 512)    2359808     conv5_block3_1_relu[0][0]         __________________________________________________________________________________________________ conv5_block3_2_bn (BatchNormali (None, 1, 1, 512)    2048        conv5_block3_2_conv[0][0]         __________________________________________________________________________________________________ conv5_block3_2_relu (Activation (None, 1, 1, 512)    0           conv5_block3_2_bn[0][0]           __________________________________________________________________________________________________ conv5_block3_3_conv (Conv2D)    (None, 1, 1, 2048)   1050624     conv5_block3_2_relu[0][0]         __________________________________________________________________________________________________ conv5_block3_3_bn (BatchNormali (None, 1, 1, 2048)   8192        conv5_block3_3_conv[0][0]         __________________________________________________________________________________________________ conv5_block3_add (Add)          (None, 1, 1, 2048)   0           conv5_block2_out[0][0]                                                                             conv5_block3_3_bn[0][0]           __________________________________________________________________________________________________ conv5_block3_out (Activation)   (None, 1, 1, 2048)   0           conv5_block3_add[0][0]            ================================================================================================== Total params: 23,587,712 Trainable params: 23,534,592 Non-trainable params: 53,120 __________________________________________________________________________________________________</pre><h3>Trending AI Articles:</h3><blockquote><a href="https://becominghu
…
ined is set to true which will include all the default weight of the model trained on ImageNet dataset and attached the model to the avaliable device i.e. GPU or CPU. The model accepts data in channel first format i.e. (channel,height,width) in this case (3,224,224)</p><p><strong>Line 2</strong>: This snippets shows the summary of the network as shown below:</p><pre>---------------------------------------------------------------<br>        Layer (type)               Output Shape         Param #<br>================================================================<br>            Conv2d-1         [-1, 64, 224, 224]           1,792<br>              ReLU-2         [-1, 64, 224, 224]               0<br>            Conv2d-3         [-1, 64, 224, 224]          36,928<br>              ReLU-4         [-1, 64, 224, 224]               0<br>         MaxPool2d-5         [-1, 64, 112, 112]               0<br>            Conv2d-6        [-1, 128, 112, 112]          73,856<br>              ReLU-7        [-1, 128, 112, 112]               0<br>            Conv2d-8        [-1, 128, 112, 112]         147,584<br>              ReLU-9        [-1, 128, 112, 112]               0<br>        MaxPool2d-10          [-1, 128, 56, 56]               0<br>           Conv2d-11          [-1, 256, 56, 56]         295,168<br>             ReLU-12          [-1, 256, 56, 56]               0<br>           Conv2d-13          [-1, 256, 56, 56]         590,080<br>             ReLU-14          [-1, 256, 56, 56]               0<br>           Conv2d-15          [-1, 256, 56, 56]         590,080<br>             ReLU-16          [-1, 256, 56, 56]               0<br>        MaxPool2d-17          [-1, 256, 28, 28]               0<br>           Conv2d-18          [-1, 512, 28, 28]       1,180,160<br>             ReLU-19          [-1, 512, 28, 28]               0<br>           Conv2d-20          [-1, 512, 28, 28]       2,359,808<br>             ReLU-21          [-1, 512, 28, 28]               0<br>           Conv2d-22          [-1, 512, 28, 28]       2,359,808<br>             ReLU-23          [-1, 512, 28, 28]               0<br>        MaxPool2d-24          [-1, 512, 14, 14]               0<br>           Conv2d-25          [-1, 512, 14, 14]       2,359,808<br>             ReLU-26          [-1, 512, 14, 14]               0<br>           Conv2d-27          [-1, 512, 14, 14]       2,359,808<br>             ReLU-28          [-1, 512, 14, 14]               0<br>           Conv2d-29          [-1, 512, 14, 14]       2,359,808<br>             ReLU-30          [-1, 512, 14, 14]               0<br>        MaxPool2d-31            [-1, 512, 7, 7]               0<br>AdaptiveAvgPool2d-32            [-1, 512, 7, 7]               0<br>           Linear-33                 [-1, 4096]     102,764,544<br>             ReLU-34                 [-1, 4096]               0<br>          Dropout-35                 [-1, 4096]               0<br>           Linear-36                 [-1, 4096]      16,781,312<br>             ReLU-37                 [-1, 4096]               0<br>          Dropout-38                 [-1, 4096]               0<br>           Linear-39                 [-1, 1000]       4,097,000<br>================================================================<br>Total params: 138,357,544<br>Trainable params: 138,357,544<br>Non-trainable params: 0<br>----------------------------------------------------------------<br>Input size (MB): 0.57<br>Forward/backward pass size (MB): 218.78<br>Params size (MB): 527.79<br>Estimated Total Size (MB): 747.15<br>--------------------------------------
…
ned is set to true which will include all the default weight of the model trained on ImageNet dataset and attached the model to the avaliable device i.e. GPU or CPU. The model accepts data in channel first format i.e. (channel,height,width) in this case (3,224,224)</p><p><strong>Line 2</strong>: This snippets shows the summary of the network as shown below:</p><pre>----------------------------------------------------------------<br>        Layer (type)               Output Shape         Param #<br>================================================================<br>            Conv2d-1         [-1, 64, 224, 224]           1,792<br>              ReLU-2         [-1, 64, 224, 224]               0<br>            Conv2d-3         [-1, 64, 224, 224]          36,928<br>              ReLU-4         [-1, 64, 224, 224]               0<br>         MaxPool2d-5         [-1, 64, 112, 112]               0<br>            Conv2d-6        [-1, 128, 112, 112]          73,856<br>              ReLU-7        [-1, 128, 112, 112]               0<br>            Conv2d-8        [-1, 128, 112, 112]         147,584<br>              ReLU-9        [-1, 128, 112, 112]               0<br>        MaxPool2d-10          [-1, 128, 56, 56]               0<br>           Conv2d-11          [-1, 256, 56, 56]         295,168<br>             ReLU-12          [-1, 256, 56, 56]               0<br>           Conv2d-13          [-1, 256, 56, 56]         590,080<br>             ReLU-14          [-1, 256, 56, 56]               0<br>           Conv2d-15          [-1, 256, 56, 56]         590,080<br>             ReLU-16          [-1, 256, 56, 56]               0<br>           Conv2d-17          [-1, 256, 56, 56]         590,080<br>             ReLU-18          [-1, 256, 56, 56]               0<br>        MaxPool2d-19          [-1, 256, 28, 28]               0<br>           Conv2d-20          [-1, 512, 28, 28]       1,180,160<br>             ReLU-21          [-1, 512, 28, 28]               0<br>           Conv2d-22          [-1, 512, 28, 28]       2,359,808<br>             ReLU-23          [-1, 512, 28, 28]               0<br>           Conv2d-24          [-1, 512, 28, 28]       2,359,808<br>             ReLU-25          [-1, 512, 28, 28]               0<br>           Conv2d-26          [-1, 512, 28, 28]       2,359,808<br>             ReLU-27          [-1, 512, 28, 28]               0<br>        MaxPool2d-28          [-1, 512, 14, 14]               0<br>           Conv2d-29          [-1, 512, 14, 14]       2,359,808<br>             ReLU-30          [-1, 512, 14, 14]               0<br>           Conv2d-31          [-1, 512, 14, 14]       2,359,808<br>             ReLU-32          [-1, 512, 14, 14]               0<br>           Conv2d-33          [-1, 512, 14, 14]       2,359,808<br>             ReLU-34          [-1, 512, 14, 14]               0<br>           Conv2d-35          [-1, 512, 14, 14]       2,359,808<br>             ReLU-36          [-1, 512, 14, 14]               0<br>        MaxPool2d-37            [-1, 512, 7, 7]               0<br>AdaptiveAvgPool2d-38            [-1, 512, 7, 7]               0<br>           Linear-39                 [-1, 4096]     102,764,544<br>             ReLU-40                 [-1, 4096]               0<br>          Dropout-41                 [-1, 4096]               0<br>           Linear-42                 [-1, 4096]      16,781,312<br>             ReLU-43                 [-1, 4096]               0<br>          Dropout-44                 [-1, 4096]               0<br>           Linear-45                 [-1, 1000]       4,097,000<br>================================================================<br>Total params: 143,667,240<br>Trainable params: 143,667,240<br>Non-trainable params: 0<br>----------------------------------------------------------------<br>Input size (MB): 0.57<br>Forward/backward pass size (MB): 238.69<br>Params size (MB): 548.05<br>Estimated Total Size (MB): 787.31<br>--------------------------------------
…
trong>and classifier_ layer activation to softmax i.e.<em>classifier_activation=’softmax’.</em></p><p><strong>Line 2</strong>: This snippets shows the summary of the network as shown below:</p><pre>Model: &quot;vgg16&quot;<br>_________________________________________________________________<br>Layer (type)                 Output Shape              Param #   <br>=================================================================<br>input_3 (InputLayer)         [(None, 224, 224, 3)]     0         <br>_________________________________________________________________<br>block1_conv1 (Conv2D)        (None, 224, 224, 64)      1792      <br>_________________________________________________________________<br>block1_conv2 (Conv2D)        (None, 224, 224, 64)      36928     <br>_________________________________________________________________<br>block1_pool (MaxPooling2D)   (None, 112, 112, 64)      0         <br>_________________________________________________________________<br>block2_conv1 (Conv2D)        (None, 112, 112, 128)     73856     <br>_________________________________________________________________<br>block2_conv2 (Conv2D)        (None, 112, 112, 128)     147584    <br>_________________________________________________________________<br>block2_pool (MaxPooling2D)   (None, 56, 56, 128)       0         <br>_________________________________________________________________<br>block3_conv1 (Conv2D)        (None, 56, 56, 256)       295168    <br>_________________________________________________________________<br>block3_conv2 (Conv2D)        (None, 56, 56, 256)       590080    <br>_________________________________________________________________<br>block3_conv3 (Conv2D)        (None, 56, 56, 256)       590080    <br>_________________________________________________________________<br>block3_pool (MaxPooling2D)   (None, 28, 28, 256)       0         <br>_________________________________________________________________<br>block4_conv1 (Conv2D)        (None, 28, 28, 512)       1180160   <br>_________________________________________________________________<br>block4_conv2 (Conv2D)        (None, 28, 28, 512)       2359808   <br>_________________________________________________________________<br>block4_conv3 (Conv2D)        (None, 28, 28, 512)       2359808   <br>_________________________________________________________________<br>block4_pool (MaxPooling2D)   (None, 14, 14, 512)       0         <br>_________________________________________________________________<br>block5_conv1 (Conv2D)        (None, 14, 14, 512)       2359808   <br>_________________________________________________________________<br>block5_conv2 (Conv2D)        (None, 14, 14, 512)       2359808   <br>_________________________________________________________________<br>block5_conv3 (Conv2D)        (None, 14, 14, 512)       2359808   <br>_________________________________________________________________<br>block5_pool (MaxPooling2D)   (None, 7, 7, 512)         0         <br>_________________________________________________________________<br>flatten (Flatten)            (None, 25088)             0         <br>_________________________________________________________________<br>fc1 (Dense)                  (None, 4096)              102764544 <br>_________________________________________________________________<br>fc2 (Dense)                  (None, 4096)              16781312  <br>_________________________________________________________________<br>predictions (Dense)          (None, 1000)              4097000   <br>=================================================================<br>Total params: 138,357,544<br>Trainable params: 138,357,544<br>Non-trainable params: 0<br>_________________________________________________________________</pre><p>Now after loading the model and setting up the parameters it is the time for predicting the image as demonstrated below.</p><pre>VGG_16_prediction = VGG_16_pre_t
…
trong>and classifier_ layer activation to softmax i.e.<em>classifier_activation=’softmax’.</em></p><p><strong>Line 2</strong>: This snippets shows the summary of the network as shown below:</p><pre>Model: &quot;vgg19&quot;<br>_________________________________________________________________<br>Layer (type)                 Output Shape              Param #   <br>=================================================================<br>input_5 (InputLayer)         [(None, 224, 224, 3)]     0         <br>_________________________________________________________________<br>block1_conv1 (Conv2D)        (None, 224, 224, 64)      1792      <br>_________________________________________________________________<br>block1_conv2 (Conv2D)        (None, 224, 224, 64)      36928     <br>_________________________________________________________________<br>block1_pool (MaxPooling2D)   (None, 112, 112, 64)      0         <br>_________________________________________________________________<br>block2_conv1 (Conv2D)        (None, 112, 112, 128)     73856     <br>_________________________________________________________________<br>block2_conv2 (Conv2D)        (None, 112, 112, 128)     147584    <br>_________________________________________________________________<br>block2_pool (MaxPooling2D)   (None, 56, 56, 128)       0         <br>_________________________________________________________________<br>block3_conv1 (Conv2D)        (None, 56, 56, 256)       295168    <br>_________________________________________________________________<br>block3_conv2 (Conv2D)        (None, 56, 56, 256)       590080    <br>_________________________________________________________________<br>block3_conv3 (Conv2D)        (None, 56, 56, 256)       590080    <br>_________________________________________________________________<br>block3_conv4 (Conv2D)        (None, 56, 56, 256)       590080    <br>_________________________________________________________________<br>block3_pool (MaxPooling2D)   (None, 28, 28, 256)       0         <br>_________________________________________________________________<br>block4_conv1 (Conv2D)        (None, 28, 28, 512)       1180160   <br>_________________________________________________________________<br>block4_conv2 (Conv2D)        (None, 28, 28, 512)       2359808   <br>_________________________________________________________________<br>block4_conv3 (Conv2D)        (None, 28, 28, 512)       2359808   <br>_________________________________________________________________<br>block4_conv4 (Conv2D)        (None, 28, 28, 512)       2359808   <br>_________________________________________________________________<br>block4_pool (MaxPooling2D)   (None, 14, 14, 512)       0         <br>_________________________________________________________________<br>block5_conv1 (Conv2D)        (None, 14, 14, 512)       2359808   <br>_________________________________________________________________<br>block5_conv2 (Conv2D)        (None, 14, 14, 512)       2359808   <br>_________________________________________________________________<br>block5_conv3 (Conv2D)        (None, 14, 14, 512)       2359808   <br>_________________________________________________________________<br>block5_conv4 (Conv2D)        (None, 14, 14, 512)       2359808   <br>_________________________________________________________________<br>block5_pool (MaxPooling2D)   (None, 7, 7, 512)         0         <br>_________________________________________________________________<br>flatten (Flatten)            (None, 25088)             0         <br>_________________________________________________________________<br>fc1 (Dense)                  (None, 4096)              102764544 <br>_________________________________________________________________<br>fc2 (Dense)                  (None, 4096)              16781312  <br>_________________________________________________________________<br>predictions (Dense)          (None, 1000)              4097000   <br>=================================================================<br>Total params: 143,667,240<br>Trainable params: 143,667,240<br>Non-trainable params: 0<br>_________________________________________________________________</pre><p>Now after loading the model and setting up the parameters it is the time for predicting the image as demonstrated below.</p><pre>VGG_19_prediction = VGG_19_pre_t
…
put_tensor=image_input</em>.</p><p><strong>Line 4: </strong>This snippet is used to display the Summary of the VGG-16 model which will be used to extract feature from the image shown below.</p><pre>Model: &quot;vgg16&quot;<br>_________________________________________________________________<br>Layer (type)                 Output Shape              Param #   <br>=================================================================<br>input_2 (InputLayer)         [(None, 32, 32, 3)]       0         <br>_________________________________________________________________<br>block1_conv1 (Conv2D)        (None, 32, 32, 64)        1792      <br>_________________________________________________________________<br>block1_conv2 (Conv2D)        (None, 32, 32, 64)        36928     <br>_________________________________________________________________<br>block1_pool (MaxPooling2D)   (None, 16, 16, 64)        0         <br>_________________________________________________________________<br>block2_conv1 (Conv2D)        (None, 16, 16, 128)       73856     <br>_________________________________________________________________<br>block2_conv2 (Conv2D)        (None, 16, 16, 128)       147584    <br>_________________________________________________________________<br>block2_pool (MaxPooling2D)   (None, 8, 8, 128)         0         <br>_________________________________________________________________<br>block3_conv1 (Conv2D)        (None, 8, 8, 256)         295168    <br>_________________________________________________________________<br>block3_conv2 (Conv2D)        (None, 8, 8, 256)         590080    <br>_________________________________________________________________<br>block3_conv3 (Conv2D)        (None, 8, 8, 256)         590080    <br>_________________________________________________________________<br>block3_pool (MaxPooling2D)   (None, 4, 4, 256)         0         <br>_________________________________________________________________<br>block4_conv1 (Conv2D)        (None, 4, 4, 512)         1180160   <br>_________________________________________________________________<br>block4_conv2 (Conv2D)        (None, 4, 4, 512)         2359808   <br>_________________________________________________________________<br>block4_conv3 (Conv2D)        (None, 4, 4, 512)         2359808   <br>_________________________________________________________________<br>block4_pool (MaxPooling2D)   (None, 2, 2, 512)         0         <br>_________________________________________________________________<br>block5_conv1 (Conv2D)        (None, 2, 2, 512)         2359808   <br>_________________________________________________________________<br>block5_conv2 (Conv2D)        (None, 2, 2, 512)         2359808   <br>_________________________________________________________________<br>block5_conv3 (Conv2D)        (None, 2, 2, 512)         2359808   <br>_________________________________________________________________<br>block5_pool (MaxPooling2D)   (None, 1, 1, 512)         0         <br>=================================================================<br>Total params: 14,714,688<br>Trainable params: 14,714,688<br>Non-trainable params: 0<br>_________________________________________________________________</pre><p>Since we are using the VGG-16 as a architecture with our custom dataset so we have to add our custom dense layer so that we can classify the objects from the
…
nput_tensor=image_input</em>.</p><p><strong>Line 4: </strong>This snippet is used to display the Summary of the VGG-19 model which will be used to extract featur from the image shown below.</p><pre>Model: &quot;vgg19&quot;<br>_________________________________________________________________<br>Layer (type)                 Output Shape              Param #   <br>=================================================================<br>input_3 (InputLayer)         [(None, 32, 32, 3)]       0         <br>_________________________________________________________________<br>block1_conv1 (Conv2D)        (None, 32, 32, 64)        1792      <br>_________________________________________________________________<br>block1_conv2 (Conv2D)        (None, 32, 32, 64)        36928     <br>_________________________________________________________________<br>block1_pool (MaxPooling2D)   (None, 16, 16, 64)        0         <br>_________________________________________________________________<br>block2_conv1 (Conv2D)        (None, 16, 16, 128)       73856     <br>_________________________________________________________________<br>block2_conv2 (Conv2D)        (None, 16, 16, 128)       147584    <br>_________________________________________________________________<br>block2_pool (MaxPooling2D)   (None, 8, 8, 128)         0         <br>_________________________________________________________________<br>block3_conv1 (Conv2D)        (None, 8, 8, 256)         295168    <br>_________________________________________________________________<br>block3_conv2 (Conv2D)        (None, 8, 8, 256)         590080    <br>_________________________________________________________________<br>block3_conv3 (Conv2D)        (None, 8, 8, 256)         590080    <br>_________________________________________________________________<br>block3_conv4 (Conv2D)        (None, 8, 8, 256)         590080    <br>_________________________________________________________________<br>block3_pool (MaxPooling2D)   (None, 4, 4, 256)         0         <br>_________________________________________________________________<br>block4_conv1 (Conv2D)        (None, 4, 4, 512)         1180160   <br>_________________________________________________________________<br>block4_conv2 (Conv2D)        (None, 4, 4, 512)         2359808   <br>_________________________________________________________________<br>block4_conv3 (Conv2D)        (None, 4, 4, 512)         2359808   <br>_________________________________________________________________<br>block4_conv4 (Conv2D)        (None, 4, 4, 512)         2359808   <br>_________________________________________________________________<br>block4_pool (MaxPooling2D)   (None, 2, 2, 512)         0         <br>_________________________________________________________________<br>block5_conv1 (Conv2D)        (None, 2, 2, 512)         2359808   <br>_________________________________________________________________<br>block5_conv2 (Conv2D)        (None, 2, 2, 512)         2359808   <br>_________________________________________________________________<br>block5_conv3 (Conv2D)        (None, 2, 2, 512)         2359808   <br>_________________________________________________________________<br>block5_conv4 (Conv2D)        (None, 2, 2, 512)         2359808   <br>_________________________________________________________________<br>block5_pool (MaxPooling2D)   (None, 1, 1, 512)         0         <br>=================================================================<br>Total params: 20,024,384<br>Trainable params: 20,024,384<br>Non-trainable params: 0<br>_________________________________________________________________</pre><p>Since we have loaded the model in our environment with our configuration of the layers its time to set the training parameters of each of the layer to non-tr
…
o that the model is aware of the input and output layer to do further calculations.</p><p><strong>Line 13</strong>: This snippets shows the full summary of the model which is shown below:</p><pre>Model: &quot;model_9&quot;<br>_________________________________________________________________<br>Layer (type)                 Output Shape              Param #   <br>=================================================================<br>input_13 (InputLayer)        [(None, 32, 32, 3)]       0         <br>_________________________________________________________________<br>block1_conv1 (Conv2D)        (None, 32, 32, 64)        1792      <br>_________________________________________________________________<br>block1_conv2 (Conv2D)        (None, 32, 32, 64)        36928     <br>_________________________________________________________________<br>block1_pool (MaxPooling2D)   (None, 16, 16, 64)        0         <br>_________________________________________________________________<br>block2_conv1 (Conv2D)        (None, 16, 16, 128)       73856     <br>_________________________________________________________________<br>block2_conv2 (Conv2D)        (None, 16, 16, 128)       147584    <br>_________________________________________________________________<br>block2_pool (MaxPooling2D)   (None, 8, 8, 128)         0         <br>_________________________________________________________________<br>block3_conv1 (Conv2D)        (None, 8, 8, 256)         295168    <br>_________________________________________________________________<br>block3_conv2 (Conv2D)        (None, 8, 8, 256)         590080    <br>_________________________________________________________________<br>block3_conv3 (Conv2D)        (None, 8, 8, 256)         590080    <br>_________________________________________________________________<br>block3_pool (MaxPooling2D)   (None, 4, 4, 256)         0         <br>_________________________________________________________________<br>block4_conv1 (Conv2D)        (None, 4, 4, 512)         1180160   <br>_________________________________________________________________<br>block4_conv2 (Conv2D)        (None, 4, 4, 512)         2359808   <br>_________________________________________________________________<br>block4_conv3 (Conv2D)        (None, 4, 4, 512)         2359808   <br>_________________________________________________________________<br>block4_pool (MaxPooling2D)   (None, 2, 2, 512)         0         <br>_________________________________________________________________<br>block5_conv1 (Conv2D)        (None, 2, 2, 512)         2359808   <br>_________________________________________________________________<br>block5_conv2 (Conv2D)        (None, 2, 2, 512)         2359808   <br>_________________________________________________________________<br>block5_conv3 (Conv2D)        (None, 2, 2, 512)         2359808   <br>_________________________________________________________________<br>block5_pool (MaxPooling2D)   (None, 1, 1, 512)         0         <br>_________________________________________________________________<br>flatten_6 (Flatten)          (None, 512)               0         <br>_________________________________________________________________<br>dense_36 (Dense)             (None, 1000)              513000    <br>_________________________________________________________________<br>dense_37 (Dense)             (None, 800)               800800    <br>_________________________________________________________________<br>dense_38 (Dense)             (None, 400)               320400    <br>_________________________________________________________________<br>dense_39 (Dense)             (None, 200)               80200     <br>_________________________________________________________________<br>dense_40 (Dense)             (None, 100)               20100     <br>_________________________________________________________________<br>dense_41 (Dense)             (None, 10)                1010      <br>=================================================================<br>Total params: 16,450,198<br>Trainable params: 16,450,198<br>Non-trainable params: 0<br>_________________________________________________________________</pre><p>Now we have to compile the model which is shown below:</p><pre>base_learning_rate = 0.0001  <strong>#Line 13</strong></pre><pre>model_final.compile(optimizer=tf
…
>so that the model is aware of the input and output layer to do further calculations.</p><p><strong>Line 13</strong>: This snippets shows the full summary of the model which is shown below:</p><pre>Model: &quot;model&quot;<br>_________________________________________________________________<br>Layer (type)                 Output Shape              Param #   <br>=================================================================<br>input_1 (InputLayer)         [(None, 32, 32, 3)]       0         <br>_________________________________________________________________<br>block1_conv1 (Conv2D)        (None, 32, 32, 64)        1792      <br>_________________________________________________________________<br>block1_conv2 (Conv2D)        (None, 32, 32, 64)        36928     <br>_________________________________________________________________<br>block1_pool (MaxPooling2D)   (None, 16, 16, 64)        0         <br>_________________________________________________________________<br>block2_conv1 (Conv2D)        (None, 16, 16, 128)       73856     <br>_________________________________________________________________<br>block2_conv2 (Conv2D)        (None, 16, 16, 128)       147584    <br>_________________________________________________________________<br>block2_pool (MaxPooling2D)   (None, 8, 8, 128)         0         <br>_________________________________________________________________<br>block3_conv1 (Conv2D)        (None, 8, 8, 256)         295168    <br>_________________________________________________________________<br>block3_conv2 (Conv2D)        (None, 8, 8, 256)         590080    <br>_________________________________________________________________<br>block3_conv3 (Conv2D)        (None, 8, 8, 256)         590080    <br>_________________________________________________________________<br>block3_conv4 (Conv2D)        (None, 8, 8, 256)         590080    <br>_________________________________________________________________<br>block3_pool (MaxPooling2D)   (None, 4, 4, 256)         0         <br>_________________________________________________________________<br>block4_conv1 (Conv2D)        (None, 4, 4, 512)         1180160   <br>_________________________________________________________________<br>block4_conv2 (Conv2D)        (None, 4, 4, 512)         2359808   <br>_________________________________________________________________<br>block4_conv3 (Conv2D)        (None, 4, 4, 512)         2359808   <br>_________________________________________________________________<br>block4_conv4 (Conv2D)        (None, 4, 4, 512)         2359808   <br>_________________________________________________________________<br>block4_pool (MaxPooling2D)   (None, 2, 2, 512)         0         <br>_________________________________________________________________<br>block5_conv1 (Conv2D)        (None, 2, 2, 512)         2359808   <br>_________________________________________________________________<br>block5_conv2 (Conv2D)        (None, 2, 2, 512)         2359808   <br>_________________________________________________________________<br>block5_conv3 (Conv2D)        (None, 2, 2, 512)         2359808   <br>_________________________________________________________________<br>block5_conv4 (Conv2D)        (None, 2, 2, 512)         2359808   <br>_________________________________________________________________<br>block5_pool (MaxPooling2D)   (None, 1, 1, 512)         0         <br>_________________________________________________________________<br>flatten (Flatten)            (None, 512)               0         <br>_________________________________________________________________<br>dense (Dense)                (None, 1000)              513000    <br>_________________________________________________________________<br>dense_1 (Dense)              (None, 800)               800800    <br>_________________________________________________________________<br>dense_2 (Dense)              (None, 400)               320400    <br>_________________________________________________________________<br>dense_3 (Dense)              (None, 200)               80200     <br>_________________________________________________________________<br>dense_4 (Dense)              (None, 100)               20100     <br>_________________________________________________________________<br>dense_5 (Dense)              (None, 10)                1010      <br>=================================================================<br>Total params: 21,759,894<br>Trainable params: 21,759,894<br>Non-trainable params: 0<br>_________________________________________________________________</pre><p>Now we have to compile the model which is shown below:</p><pre>base_learning_rate = 0.0001  <strong>#Line 13</strong></pre><pre>model_final.compile(optimizer=tf
…
